Deep_Learning/Human-Action-Recognition-Using-Detectron2-And-Lstm/models/epoch=394-step=17774.ckpt (torch, 216968 bytes, 18 tensors)

lstm.weight_ih_l0 f4 [200, 34]
00000000: f337 113c 3bea 8a3c 26f0 2cbe 3fc2 23be
00000010: d712 573c d9a2 a7bd 7020 abbd 0768 2b3d
00000020: f399 e23c 0151 bd3d cf54 123e d260 4dbd
00000030: b1ae 19bd c589 d93d 62a8 b83d 6e79 10be
00000040: 9c9f 933d 34dc 1dbe 133e 03bd 2096 7a3d
00000050: ba45 c23d 18da 1abb 5c0f c5bd 9fbd f6bc
00000060: 60cb 0ebe ddb5 223d 04d3 043d bbe8 a4bd
00000070: a10d b33d 2fc8 223e 123b cdbd f786 513d
00000080: d298 cabd 1ca6 adbd cb10 82bc ba62 07be
00000090: 99b7 09bd 93f6 d33d 624a 19bd 3163 633b
000000a0: f507 423d 197a ec3d cd94 fe3c ca05 b4bd
000000b0: b616 64bd 595a b9bd 713b 223d 5500 093e
000000c0: 797f af3d 413c 063e e9df 923d 5836 4b3c
000000d0: dc69 65bd a7c6 23bd 9af4 063e 6122 b03d
000000e0: d111 49bc a763 a8bd eb43 503d 6899 343d
000000f0: b853 9a3d 479e 62bd 316b ab3d 261a 5d3d
00000100: e729 24bd 7e3d a33d f221 333d 871c f33d
00000110: be40 9a3d 871e f9bb 1bc6 07be bc18 f53d
00000120: 1ad5 bbbc 6c6c 083e 6aa0 85bb a820 bcbd
00000130: 3800 f3bc dccd 95bd b97c e4bd 9aef f9bd
00000140: 9d92 09be 4975 6bbd e723 02be 6754 0a3e
00000150: b1ee e6bc 5e15 a9bc 865e 613d 2028 7d3d
00000160: 9e9c 093e 8234 b3bd 35d1 6fbc d980 a93c
00000170: f97e 02be ab04 b5bc bea1 d93d 88f2 15bd
00000180: f414 c63d aaaa 08be 53ba 96bd 961e 14bd
00000190: 9c8c ec3d adf8 fdbd f3fe 4bbd ce85 37bc
000001a0: 4c28 57bd bef3 013e 6dce ff3d ce22 fa3d
000001b0: 4638 933d c634 123d 4f55 863d 918c a83d
000001c0: eb5d b3bd 3a50 b33d 2c94 c6bd 4180 6c3d
000001d0: 1acc de3d d26d 9b3c 27c6 e83d 04e6 df3d
000001e0: 2b0b 0b3e 0c21 983d 3bf1 cbbd 3509 fe3d
000001f0: 4afd bebc 8c1e 973d 2b80 05bb a3fd 923d
00000200: 84d3 933d 1d0a 58bd 718b 6e3d 6f2f 1fbd
00000210: 6dec a6bd b734 4f3d 3679 f63d 2c22 6e3d
00000220: 6806 dabd 047b 973d dc65 4c3d ca41 68ba
00000230: 3a03 28be 368c 0cbd f263 ed3d df58 133e
00000240: 4050 f1bc a5a2 683d 5440 cabc 0f96 613c
00000250: ef9f 6b3c a555 63bd 7a90 c23c e2bf 1cbd
00000260: 7bc0 10bc a9c9 bcbd 52c4 c73d 4793 f93d
00000270: 7961 9e3d c10a a7bd 7556 843d 3168 0bbd
00000280: 4264 b1bc 872e 44bd 76b8 9bbd fc9a 55bd
00000290: 990f 313d 697e 973c 182c 913d 94cb 073d
000002a0: 6462 0bbe 5a55 553c dc51 cb3d 06cd 1a3d
000002b0: ef3c 82bc e793 c93d fecf fe3d c8ef 6ebc
000002c0: 8814 0a3c ec42 d93d c420 dabd 1c24 4cbd
000002d0: aaa7 6dbd 3ffe 5a3d ece4 e93d 23b1 c73d
000002e0: 08b2 953d b323 febd 65f7 e73d 2889 9c3a
000002f0: 172e aebc f050 d1bd 31c1 ee3d cb53 e13b
00000300: 879a d4bd 13b7 f23d bcdd 0c3e ad45 283d
00000310: 3372 4bbd ab87 973d 1c2d 44bd befc f63d
00000320: 7e78 9e3d 54fa 4abd b677 6ebb 78be aabd
00000330: c8b7 93bd 2e55 acbd 10e2 cbbd d40b 2dbd
00000340: 7255 023e debf 44be a934 10bd f269 80bc
00000350: 20a7 cb3c 08d2 c23d 5834 a5bc e824 ecbd
00000360: 6c56 d73c a984 b83d 50a8 a2bd 8ca6 2f3d
00000370: 2ec1 ce3d a887 073e c6b7 c43d 4037 b23d
00000380: e397 13be 7801 fe3d 7ba5 363c 819a b6bd
00000390: 4f26 643d 8075 16bd 621a 4f3d 1cbe b73d
000003a0: c1b0 263c 76fd d1bd fa55 6bbc 6f50 63bc
000003b0: 330c 0bbe 04d6 bfbd ed8d 0b3d 48ef 4ebd
000003c0: 78d0 233d 9abe f4bd 6328 10be c770 cebc
000003d0: f29d 883d 02ed b6bd acf7 2c3d 2df7 353d
000003e0: 9201 94bd 1ecd de3d 17ad 653d 41ec 103e
000003f0: 71f3 843d 2c4e a83c 79cf c0bd ed5b 2a3d
0.008863437 0.016957393 -0.16888484 -0.15992068 0.01312705 -0.081853576 -0.08355796 0.041847255
0.0276613 0.09243966 0.14290164 -0.050141163 -0.037520114 0.106219806 0.090164915 -0.14108822
0.072081774 -0.15416032 -0.03204162 0.061178327 0.094859555 -0.002362853 -0.0962207 -0.030119715
-0.13944769 0.03972422 0.032427803 -0.08052202 0.08742834 0.15896676 -0.100210324 0.051154103
-0.098924294 -0.084789485 -0.015877148 -0.13221255 -0.033622358 0.10349765 -0.037424453 0.0034696574
0.04737087 0.11546726 0.031076813 -0.08790167 -0.05568572 -0.090504356 0.03960747 0.13379033
0.08569235 0.13108923 0.07171614 0.012403093 -0.05600916 -0.03998437 0.13179246 0.08600307
-0.012272314 -0.08222132 0.05084602 0.044091612 0.07535499 -0.055326726 0.083700545 0.053980015
-0.040079024 0.07970713 0.043733545 0.118706755 0.0753188 -0.007602516 -0.13259165 0.11967608
-0.022928763 0.1332261 -0.0040779607 -0.09185916 -0.02966319 -0.07314655 -0.111566015 -0.122039035
-0.13434835 -0.0574849 -0.12709008 0.1350876 -0.028189989 -0.020640071 0.055021785 0.061805844
0.13438651 -0.087502494 -0.014637281 0.020691322 -0.12743749 -0.022096952 0.10626553 -0.03660825
0.09671965 -0.13346353 -0.07359757 -0.03616198 0.115502566 -0.12400947 -0.049803685 -0.011201335
-0.052528664 0.12690637 0.124905445 0.1221367 0.07188468 0.03569486 0.0655924 0.08229936
-0.08758148 0.087555364 -0.0969623 0.0577395 0.10878773 0.018973265 0.113659196 0.10932544
0.13578479 0.07428178 -0.099581204 0.124041 -0.023314137 0.07378873 -0.0020370584 0.071772836
0.07218078 -0.05274402 0.05823845 -0.038863596 -0.081505634 0.050587382 0.12034838 0.058138058
-0.10645753 0.0739651 0.04990183 -0.0008859901 -0.16407481 -0.034313403 0.11591329 0.1438937
-0.029457211 0.056795735 -0.024688877 0.013768687 0.014381393 -0.0555016 0.023750532 -0.03826893
-0.008834953 -0.09218151 0.09754242 0.12186294 0.07733435 -0.08156348 0.06461803 -0.03403491
-0.021654252 -0.047895934 -0.076035425 -0.052149758 0.043227766 0.018492894 0.07088488 0.03315313
-0.13611752 0.013020838 0.09927723 0.03779318 -0.015898196 0.09842663 0.12442015 -0.0145835355
0.008427747 0.106084675 -0.10650781 -0.049839124 -0.058021225 0.053465124 0.114206165 0.09750583
0.073093474 -0.12409153 0.11326484 0.0011942731 -0.021262212 -0.10220516 0.11657942 0.006876444
-0.10381036 0.11851325 0.1375646 0.041082073 -0.049669456 0.073989235 -0.047894582 0.120599255
0.07737826 -0.049555138 -0.0036387271 -0.0833711 -0.07212788 -0.08414684 -0.099552274 -0.04224761
0.12727907 -0.19213817 -0.03520647 -0.015675519 0.024859965 0.095127165 -0.020166561 -0.11530477
0.026286326 0.09009678 -0.07942259 0.04288344 0.1009544 0.13235343 0.096053645 0.08701944
-0.14413409 0.12402624 0.011147852 -0.08916188 0.055700596 -0.03673315 0.05056227 0.08971807
0.010173977 -0.10253422 -0.01436376 -0.013874157 -0.13578872 -0.09366992 0.034070898 -0.050521165
0.039993733 -0.11950417 -0.14077906 -0.02520026 0.06670751 -0.089319244 0.042228386 0.04442518
-0.07226862 0.10878967 0.056073274 0.14152624 0.06491745 0.020545088 -0.09414572 0.041591574

lstm.weight_hh_l0 f4 [200, 50]
00000000: 8920 b6be 0eb6 0c3e 8079 e2bd 3436 f1be
00000010: 33a6 1dbe e509 63bf bcfb 983e cf27 86bd
00000020: 9079 03bf 01e5 b33d d70b a83e facf 36bd
00000030: 5c5f c43d 10c6 77be a0fd 023f 7a92 7dbe
00000040: 59f3 e7bd 1545 9dbd d37f 463e 8f33 87be
00000050: 4cac 02bf db0e bebd b881 d03e c21d 6abe
00000060: e0d6 48bd 8fc0 fcbd 5fbe 4dbd 2844 b83e
00000070: 7899 4bbe 3527 f03d 8214 243f fc7d 87bc
00000080: 44b3 0ebd 3f6f 193f 45c7 53bf a4e0 203f
00000090: 05a3 153e f3aa 81bf db05 5bbe f247 a83c
000000a0: 1ae1 febe 9a37 09be 213a c13b 9f03 883e
000000b0: 7f33 92be d69f 21be c995 823f 1bc8 c83e
000000c0: 95db 983d c04d 81bc baef c9bd f1b7 0f3c
000000d0: 5ce6 e23d 6f0d cabc a08d b4bd c46c 763c
000000e0: d15b 5abd 51d6 8cbd e16d f1bd 4f07 84bd
000000f0: b476 d93c 5695 813b 27f0 97bd 5b98 eebd
00000100: be01 7ebd 283e 4d3d 9684 d9bd 0903 763d
00000110: 9b94 c73c 02ee 093e 13ae c23d a9d7 b8bc
00000120: 5fcd 0a3e 8fad c63c 9fe7 a3bd fffc 67bd
00000130: ccd6 013e e880 9cbc ac04 7c3d ab4f eb3c
00000140: bacb afbb 84ce f3bc 0410 febd 518a f3bd
00000150: 435c c4bc 726f 45bd c705 74bd 0c29 8e3d
00000160: bd2a 4fbd 01a7 e5bc 4294 0e3d 6726 c73d
00000170: 9b09 003e 5875 b7bd a999 ecbd 14bf 963d
00000180: 586b 78bd 863a 0b3d 9f56 4f3d b31f e53d
00000190: f0a5 fb3d 48e9 0a3e 5cda febd 3912 65bd
000001a0: 7685 60bc 29a0 0cbe 1a49 f33d ce21 fc3d
000001b0: 2065 503d 2b7c eebb 1185 05be daf1 9ebd
000001c0: 3152 ef3d aee5 29bd 93d8 9bbd 89c1 c13d
000001d0: c39c 9bbd 5df5 af3d befd 883c 51f0 663d
000001e0: e2dd 2bbd 296b 18bd 871b 1dbc c377 74bd
000001f0: d7c0 02be f20c 8fbd 01e9 de3d 0ed9 d93c
00000200: 3eac 993d 89b6 fdbd 0b1d 0fbd 94ed f0bd
00000210: 2f22 86bd e9b9 bdbd 483a c43b 93e2 043d
00000220: 42e6 c5bd fc82 bf3d 5896 02be 6532 083d
00000230: d776 973d ee83 6ebd 4b8b 0cbc de6d 993d
00000240: 3c69 653d 8701 313d 134f 8b3a a125 36bd
00000250: dcad 04bd 00e8 913c 5186 ce3d 1045 bb3d
00000260: 4d51 2e3d 7cc2 01be 7a07 08be 64d8 e33c
00000270: 378b 0d3e ca62 e83d f73e 4fbd 44f3 e0bd
00000280: 031e bdbc ba2a d93d 2323 eb3d b07d cebd
00000290: 6e85 a3bd 148c 16bc 08ba 38bc 34f9 073e
000002a0: 09a6 babc 83c7 5f3d d439 7e3d 21b3 0dbd
000002b0: 8505 0b3e 96a8 b6bd eff5 ea3c b869 123d
000002c0: 50dc 1e3d a796 563d 092a 8fbd ad17 0dbe
000002d0: 6158 dabd 93fc ff3d 13c4 033e 0792 edbd
000002e0: 0492 513d 9a23 ce3d cf39 77bc 4dee f43d
000002f0: a4e5 59bd 755b 6b3d 643d 0ebe ad9d 193c
00000300: 5d7a c33d 885c 01be 78db 013e d2ae 103d
00000310: 3031 b73d 72a9 9dbd 0e13 c4bd c8d1 81bd
00000320: 815c 34be 47dd 663d f20f 013e 7cea 6ebe
00000330: b7c0 4abf fd3c 333f 6dbb 123b a2f2 dcbc
00000340: 436e 6dbf 8164 bdbd 02c7 9aba 6a3c 26be
00000350: 446b 8bbd a99c 3b3e 6aad 44be 8e9d c4be
00000360: 44c0 dabd 2859 34bd 328d 09be 44b3 9cbd
00000370: 92f4 dfbe 3a21 163f 0bcb 433f 1108 1fbe
00000380: 53eb 173e 3cb9 c1bd 5b7f e53c fd90 3c3d
00000390: d3a2 ed3d 1828 cdbd 4b6e 07bf 9e6f 1e3d
000003a0: ffc8 223d 1e98 63be e2a8 32be 7171 90be
000003b0: 4a3b 273d 79bd 093f 3a2a 89be aea3 a2bd
000003c0: 864b 47bd a2aa d5be 2c52 063e 3b86 2b3e
000003d0: 2006 fcbd 84a4 b5be 2b65 e7bd 30b4 12be
000003e0: 5708 f0bd b7e9 27bd a581 bfbd 7cc7 e03b
000003f0: 65f3 193d 9dbe cc3d 815b c7bd 2f9b 8bbd
-0.35571697 0.13741323 -0.110583305 -0.47111666 -0.15395431 -0.8868697 0.29879558 -0.06550562
-0.51357365 0.087839134 0.32821533 -0.044631936 0.09588501 -0.24196649 0.5116825 -0.24762908
-0.11325712 -0.07679192 0.19384699 -0.26406524 -0.51044154 -0.09280177 0.40723968 -0.22862914
-0.049033046 -0.12341415 -0.05023038 0.359895 -0.19882762 0.11726228 0.6409379 -0.016539566
-0.03483893 0.59935373 -0.82725936 0.62842774 0.14612968 -1.0130295 -0.21388952 0.020542119
-0.49781114 -0.13400117 0.005896822 0.26565263 -0.28554913 -0.15783629 1.0201961 0.39215168
0.07463757 -0.015784144 -0.09860177 0.008771882 0.11079094 -0.024664609 -0.08816075 0.01504058
-0.05331022 -0.06876815 -0.11788536 -0.064467065 0.02654586 0.00395457 -0.07418852 -0.11650153
-0.06201338 0.050108105 -0.10620992 0.06006149 0.024362853 0.13469699 0.09505858 -0.022563772
0.13554905 0.024252681 -0.080031626 -0.05663776 0.12679595 -0.019104436 0.061527893 0.028724512
-0.0053648623 -0.02976156 -0.124053985 -0.11891616 -0.023969775 -0.048201986 -0.059575822 0.06941423
-0.050577868 -0.028033735 0.03480936 0.097241215 0.12503664 -0.089579284 -0.11552746 0.07360664
-0.060649246 0.03399136 0.050619718 0.11187687 0.122875094 0.13565552 -0.124439925 -0.05592558
-0.013703695 -0.13732971 0.118791774 0.12311135 0.05087769 -0.0072779856 -0.13039042 -0.07760973
0.11685599 -0.041478805 -0.07609668 0.09460742 -0.07598259 0.08591721 0.016722556 0.056381527
-0.04195965 -0.03721157 -0.009589083 -0.059684526 -0.12768875 -0.06984891 0.10884286 0.026592758
0.07503556 -0.123883314 -0.034939807 -0.117640644 -0.06549489 -0.09263975 0.005988393 0.03244264
-0.09663059 0.09351155 -0.12752664 0.033251185 0.07395714 -0.058231287 -0.008578132 0.07491659
0.056008562 0.043214347 0.0010628424 -0.04446948 -0.032392368 0.017810822 0.100842126 0.09144032
0.042558003 -0.12671846 -0.13284102 0.027813144 0.13822637 0.113469675 -0.050597157 -0.10983899
-0.0230856 0.106038526 0.11481311 -0.10082567 -0.07984434 -0.009188671 -0.011274822 0.13278657
-0.02278425 0.05463363 0.062066868 -0.03459466 0.13576324 -0.08918874 0.028681723 0.035745353
0.038784325 0.052389767 -0.069904394 -0.13778563 -0.10661388 0.124993466 0.12867765 -0.11600118
0.051164642 0.10065384 -0.015089466 0.11959515 -0.053197518 0.057460267 -0.13890606 0.009375972
0.09544823 -0.12632954 0.12681377 0.03532297 0.08944929 -0.07698335 -0.09573947 -0.06338841
-0.17613412 0.05636337 0.12603739 -0.23331636 -0.7920031 0.70014936 0.0022389547 -0.026971165
-0.9274637 -0.09247685 -0.0011808577 -0.16233984 -0.06807569 0.1832148 -0.19206777 -0.38401455
-0.10681203 -0.04403034 -0.13432768 -0.0765138 -0.4374128 0.5864445 0.76481694 -0.15530421
0.14835863 -0.09459159 0.02801483 0.04603671 0.11603322 -0.10017413 -0.5290267 0.038680665
0.039742466 -0.22225997 -0.17447236 -0.2821155 0.040828027 0.5380474 -0.2679003 -0.07941376
-0.04865601 -0.41731745 0.13117284 0.16750424 -0.12305856 -0.35477078 -0.11298593 -0.14326549
-0.11720341 -0.040994372 -0.093508996 0.006859718 0.037585635 0.09997294 -0.0973425 -0.06816708

lstm.bias_ih_l0 f4 [200]
00000000: 7f33 f63b 593b 5b3d e752 f3bd ce26 cdbb
00000010: fccc f63d ee6d 433d b23c 53bc 785c 863d
00000020: 2aaa cf3c 94ee f9bd 8d36 f93d 82d1 f5bd
00000030: 7262 8dbd 0c73 443c e0a1 98bd 0a30 aebd
00000040: 4f88 48bd e754 d83d fef3 053d d341 ebbd
00000050: 797d 1bbd 59c3 e2bb 96f0 e23d abbd c7bc
00000060: 00dd 193d b15d c0bd d302 a1bc 9114 99bd
00000070: e21e f7bd 2780 6d3c 1f00 663d d959 ed3c
00000080: 6438 523d f72e 333e b549 a53d 56c0 cd3d
00000090: 6add b0bc d9d9 1bbe c893 393d 8100 90bc
000000a0: c7c9 383b 2341 c33d f025 02be 997b 58bd
000000b0: daac fe3d 1013 923d 29c0 b3bd ef5d e53d
000000c0: e869 b0bd bdf4 013e a6d0 1e3e b8f4 e3bc
000000d0: 279c f33d 4424 9c3d 53c2 c43d 15df 203d
000000e0: 52cb cd3d e8ac 983b 6066 a43d b81e 3d3d
000000f0: fa71 7abd de8c 8c3b bb4c 4cbb 6aa5 30bc
00000100: 31b6 c1bd 1fac bf3d f25d 9c3d cb4f 073e
00000110: 76aa ff3d 177b afbd c107 e8bd 0a5f 0fbe
00000120: 615f 3dbb 5cb2 ffbd 3026 c0bd f0f1 343e
00000130: 0731 e6bd 2134 b6bd e07c 633d 69a5 80bd
00000140: 3e9b 01bd a7b7 953d 84ce 98bd 344d e7bd
00000150: 4631 04be c114 203e 00cd ed3d 14d0 ed3d
00000160: 825b 1a3e b07e 41bd 16c8 b33d 1374 2d3d
00000170: bf9e cd3d cd22 05be 92ea 4a3d 99eb f7bd
00000180: f71f b9bc 39b8 983d 66c0 87bd 4457 0cbe
00000190: 9e15 f7bd 1e57 ad3d e3be b5bd 5f78 6fbd
000001a0: a051 9c3d 7763 d9bd 1cb5 df3c 0732 013e
000001b0: 02c9 f4bd 298f 64bd 1b0c 3dbd f02f 13bc
000001c0: 4d95 a73d 93e4 923b 58d2 31bd 9370 0cbe
000001d0: 2483 123e e996 c23d c718 f5bd 2219 22bd
000001e0: 2d86 90bd 8d71 243c 5247 f93d 145d 72bd
000001f0: bcd0 3dbc dc2a 8a39 b576 fbbc 578a 9c3d
00000200: 860c bbbd 060a f73d 5268 c23d b975 dbbc
00000210: f7e5 fabc c413 c2bd f297 be3b 45ff 05be
00000220: cb95 d33c 339d 0fbd ff23 2f3d 3d5e 24bd
00000230: 0394 afbd 7d04 b93d 0987 08be b382 abbd
00000240: a8c5 ec3d fd7a ffbd aab3 923d ff82 6d3c
00000250: a659 a7bd 7ac4 f23d f2ea 8b3d 36e9 0ebc
00000260: 67fb a33d 669e cebd bedd a73d 7014 c03d
00000270: e3b2 c83d b7c4 f0bb 972b 08be ba70 063e
00000280: 7613 0c3d b755 fabc bb6f c9bd 1fd6 ec3d
00000290: d2b6 1cbd 1f12 ff3d 59b8 6abc 4a85 df3d
000002a0: 4992 f53c 24d4 303d d485 84bd bd9c 90bd
000002b0: 62c3 99bd 6be8 5ebd 42b7 92bd b78d 9cbd
000002c0: 4e3b bb3d 0dd0 2f3d 5417 b4bc 4e47 c73d
000002d0: 656e e1bd 7dd6 a53d c56d e1bc 52e4 1f3e
000002e0: c384 a8bc c8b2 793d c228 043e 41b9 0dbb
000002f0: 1dbf f4bb 28ab 97bd aa33 e0bd 05df 0d3e
00000300: df39 b5bd e9d9 903d 3e81 393d 238a cdbd
00000310: e5ca 763d 82ec 353d 1e4d cc3d 0ba1 bbbd
0.007513463 0.053523395 -0.11881047 -0.0062607294 0.120508164 0.04771226 -0.012892889 0.06560606
0.025349695 -0.12203708 0.12168608 -0.12002851 -0.069035426 0.01199032 -0.0745275 -0.085052565
-0.04895812 0.10563069 0.032703392 -0.11487164 -0.037961457 -0.00692026 0.110810444 -0.024382433
0.037564278 -0.0939287 -0.019654667 -0.07474626 -0.12066437 0.014495886 0.05615246 0.028973507
0.05132331 0.17498384 0.08070699 0.10046451 -0.021589953 -0.15219821 0.04530695 -0.017578365
0.002819644 0.09533908 -0.12709785 -0.052852247 0.124353126 0.07132542 -0.08776886 0.11199557
-0.0861395 0.12691016 0.1550928 -0.027826652 0.11895018 0.076241046 0.09607377 0.039275248
0.10048546 0.004659284 0.08027339 0.046171874 -0.061143853 0.0042892536 -0.0031173665 -0.010781625
-0.094585784 0.09359001 0.07635106 0.13214032 0.12483685 -0.085683994 -0.11329604 -0.14001098
-0.0028895962 -0.12485191 -0.09382284 0.17670417 -0.1123982 -0.088966615 0.055539012 -0.062815495
-0.03164219 0.073104195 -0.07461265 -0.11294022 -0.12909421 0.15632917 0.11611366 0.116119534
0.1507397 -0.04723996 0.08778398 0.042347025 0.10040044 -0.13001557 0.04954011 -0.121054836
-0.02259825 0.07457013 -0.06628494 -0.13705164 -0.1206467 0.08463882 -0.088742994 -0.058464404
0.07632756 -0.106146745 0.02730804 0.1261674 -0.11952402 -0.05580059 -0.046154123 -0.008983597
0.08182774 0.0044828146 -0.04341349 -0.13714819 0.14307839 0.0950144 -0.119676165 -0.03957475
-0.07056842 0.010036838 0.121718064 -0.059170797 -0.011585411 0.00026353344 -0.030696252 0.07643574
-0.09133248 0.12062459 0.09492554 -0.026789533 -0.030627234 -0.09476426 0.005816453 -0.13085659
0.025828263 -0.035062026 0.042758938 -0.040128935 -0.08573153 0.09034059 -0.13332762 -0.08374538
0.115611374 -0.1247463 0.071631745 0.014496564 -0.08171396 0.11853881 0.06831922 -0.008722594
0.080069356 -0.10088806 0.08196591 0.09378898 0.09799745 -0.007347669 -0.13297878 0.1312894
0.034198247 -0.03055845 -0.09835764 0.11564278 -0.03826029 0.12454628 -0.0143261785 0.10914095
0.02997698 0.043171063 -0.06470838 -0.070611455 -0.075079694 -0.05442087 -0.0716386 -0.076442175
0.09142171 0.042923022 -0.02198378 0.09730397 -0.11007384 0.08097551 -0.027518163 0.15614441
-0.020571118 0.060961515 0.12906173 -0.0021625313 -0.0074690715 -0.07405692 -0.10947354 0.13854606
-0.08848929 0.07072813 0.04528927 -0.10036113 0.06025209 0.044415005 0.099756464 -0.09161576

lstm.bias_hh_l0 f4 [200]
00000000: e374 b7bd 8f7b fa3b b784 c53d fd56 c63d
00000010: e32a cd3d 577a df3d 6631 f03d e517 e8bc
00000020: 0dea dabc 97ab b6bc f3a2 223e 4afa f4bc
00000030: ab61 a4bd 1184 9bbd 7137 60bc d0b5 ef3d
00000040: f926 d6ba 0cfc ca3d 6601 143d e699 833c
00000050: b2f2 ccbd 7c09 20bb f884 5fbb ac3b b9bd
00000060: 5229 f2bd 4afa dd3d af06 033d 24a6 5c3d
00000070: 5036 d1bd 1ec6 1d3d 9f9a 12be d904 d1bd
00000080: b485 2abe 8f60 64bd a473 823d 3c29 203e
00000090: 4c81 593d a245 873d 504d 023e 1101 003d
000000a0: 94a4 8dbd acac 0d3e 5d8d a93d a5e2 073e
000000b0: b074 dc3c 49b7 24bd 1e2a a43b caf3 b3bd
000000c0: 15ae 20bd 256e ecbb 2896 98bd 44d4 ecbd
000000d0: b909 033e 5bdb e73c cf85 1dbd dea7 403d
000000e0: eb3e f73d a019 d7bd 91f5 db3d c20a 0bbe
000000f0: 2441 efbd 419a 9a3c 3ba1 383d ef5f 90bd
00000100: 85b2 77bc 7875 ac3d 6aa9 c3bd 9695 fb3d
00000110: 2393 febc 3530 97bd 021e af3d 32b1 ae3d
00000120: b7c1 c4bc cf23 34bc d264 44bd 12bf 013e
00000130: 670e 86bc 19ef 0c3e 791d 0f3e 6db7 d7bd
00000140: 1a52 0cbe c1ef c4bd 1732 7abd 235b 173c
00000150: 9b3f 13bd 4df4 c43d f7c3 b2bd 3a80 cfbd
00000160: 8375 91bd b369 eb3d 671a 9cbd 365e 71bc
00000170: 8150 81bd 6cab 00be b29d 9bbc 3c77 1cbd
00000180: bc75 96bb fa9d ff3d 80f4 983d 0a20 88bd
00000190: 11e2 e43d d7a6 cbbc c635 c5bd 8a17 0ebe
000001a0: b456 dabd f253 debd b92f 573d 1332 fcbd
000001b0: 5183 023e 6ddf d9bd 2aa3 c6ba e6e2 6f3d
000001c0: 0f07 8d3c aed1 bcbd 2398 90bd f8b2 89bd
000001d0: 7ee9 84bd 70f5 b3bd 95e4 e1bd a78d 12be
000001e0: dc7b 09bd 2b8a 0bbe 3e4c 03be 09bd 6f3c
000001f0: f035 f5bd 4a0d ec3d b222 033e 366f 4b3d
00000200: a12c 36bd f8c1 023e c3e6 11bd e4a2 e43d
00000210: 9f58 c9bd 7dce 033e e92b bf3d 2e2a 063e
00000220: 21d7 493c c019 833b b663 cbbd f235 013e
00000230: c407 bc3d fe42 84bc 1c67 153d 4713 973b
00000240: 7f31 cc3c 0d2b b33d f6f9 d8bd b3b2 a43d
00000250: 0bcc b13d 597f 0f3e a716 04be 571f aabc
00000260: 68be ecbc 6549 afbb 2cea 2fbd f010 24bd
00000270: c655 6ebd 38cd c53d 00c0 c7bd 2d9b 0dbc
00000280: 9aca 05be c3b7 d9bd f170 f6bd e01f ecbd
00000290: 1ad4 f9bc 7a60 19bd d27d 41bc e748 ee3d
000002a0: 08ff ffbd 0e8f c1bd 3de7 843d e1e9 debd
000002b0: 4d98 eb3d 3b37 7abd 8781 cabd 4fa2 303c
000002c0: daed 9abd 59c4 04be a14f 1ebd 588f 153d
000002d0: 453b c23b 551d 6a3d 7061 7fbd 2000 0f3d
000002e0: d2d0 cdbc 78a3 1ebd d3fb fb3d 68ad e7bd
000002f0: 849c 8bbc b0e3 223d 2148 edbd d735 063e
00000300: 2f6c 7cbd 65dd 093e 10aa f5bd 94fd f3bc
00000310: a829 eb3d d61e 43bd 3698 59bd f9d8 a4bd
-0.08957841 0.007644124 0.09644454 0.096845604 0.100179456 0.10912006 0.11728172 -0.028331706
-0.026722932 -0.022298617 0.15882473 -0.029904503 -0.08026441 -0.07593549 -0.013685093 0.117046
-0.0016338519 0.099113554 0.036134146 0.016064595 -0.10007228 -0.0024419716 -0.0034106355 -0.09044585
-0.118242875 0.108387545 0.031988796 0.05386938 -0.102154374 0.038519017 -0.14316796 -0.10206003
-0.16652566 -0.055756148 0.06369713 0.1564073 0.053101823 0.06605078 0.12724805 0.031251017
-0.069161564 0.138354 0.08278916 0.13270052 0.02691111 -0.040213857 0.0050099036 -0.087867334
-0.039228518 -0.0072152787 -0.07450515 -0.11563924 0.12796678 0.028302839 -0.038457688 0.04703509
0.120725475 -0.105029345 0.107401974 -0.13578323 -0.116823465 0.018872382 0.045075636 -0.07049548
-0.015118246 0.08420843 -0.095537975 0.12284391 -0.03107602 -0.07382242 0.085506454 0.08529891
-0.024018152 -0.010994866 -0.047947712 0.12670544 -0.01636429 0.13763084 0.13976087 -0.105330326
-0.13703194 -0.09616042 -0.061082926 0.009238037 -0.03594933 0.09616909 -0.087287836 -0.10131879
-0.07102492 0.1149477 -0.07622223 -0.014731934 -0.06314183 -0.12565392 -0.018996093 -0.03819965
-0.0045916717 0.124813035 0.0746851 -0.06646736 0.11175931 -0.024859829 -0.09629397 -0.13876167
-0.106610686 -0.10855855 0.052535746 -0.123142384 0.12745406 -0.10638318 -0.0015154828 0.058565997
0.01721528 -0.09219681 -0.07060268 -0.06723589 -0.064898476 -0.08787048 -0.11029927 -0.14311849
-0.033565387 -0.13626926 -0.12822053 0.014632472 -0.119731784 0.11525972 0.12806204 0.049666606
-0.044476155 0.12769306 -0.035620462 0.111638814 -0.09831356 0.12871738 0.09334547 0.13102028
0.012319357 0.0040008724 -0.09931128 0.12618235 0.09181169 -0.016145226 0.036475286 0.0046104523
0.024925945 0.08748446 -0.10594551 0.08041897 0.08681496 0.14013423 -0.12899266 -0.020766897
-0.028899387 -0.0053493255 -0.042947933 -0.040055215 -0.05818727 0.09658283 -0.09753418 -0.008642954
-0.13065568 -0.10630753 -0.120332606 -0.11529517 -0.030496646 -0.037445523 -0.011809783 0.11634999
-0.12499815 -0.09451114 0.06489418 -0.108844526 0.115036584 -0.061087828 -0.09887987 0.010780885
-0.07564898 -0.12965526 -0.03865016 0.036513656 0.0059274756 0.05715688 -0.062348783 0.03491223
-0.025123987 -0.038730115 0.12303891 -0.113123715 -0.017042406 0.03976792 -0.11586023 0.13106476
-0.06162661 0.13463362 -0.119953275 -0.029784001 0.11482555 -0.04763683 -0.053123675 -0.08049197

linear.weight f4 [6, 50]
00000000: a2ed 593f 1781 823c 0ba5 353d b6c4 283f
00000010: 6768 de3e 9ecf 873f fa35 113f f094 ba3e
00000020: 0e53 febe 18e4 523e 9211 4abf 58b7 473f
00000030: 0004 90be f5a2 5b3e 9bd4 043e 1061 4e3f
00000040: 0821 0dbe 3a9b 20be 2529 cebe 405a c13e
00000050: d794 563f f314 3b3f bb61 a4bf c319 92bf
00000060: 9b52 d93e 9aa6 133e 1fa2 4dbd f412 98be
00000070: 23e0 933e e618 403d 6566 babf 9107 f83d
00000080: b836 00bf 4903 80bc c2b4 36bd 50c9 a03f
00000090: 2b50 653d a48f 70bf 8f76 793f 225a 80be
000000a0: 15c1 fd3e fc48 513f d8c4 2f3d 22f9 74be
000000b0: 0b3d c4be 6b26 ff3e e43c b9bf 38f2 443f
000000c0: 5766 0bbe f0d0 00be bcc7 2bbf 043c b43e
000000d0: 0ab8 04bd e021 c5be 69bb 35bd e948 0cbf
000000e0: 40b0 e63e efb3 a53e a674 9bbf 18f0 103e
000000f0: acfc d83e 6692 d83e 8d4f 88be dea2 41bf
00000100: 5b4e 063d a455 89bf 721f d5be d312 d6be
00000110: b9e3 79be 1039 78be 7d17 52bf 425e 1e3f
00000120: 3ce4 ac3f 5abc 89bf 5829 b23e caf3 5abf
00000130: 5071 97bd 89a8 e8be 9f43 babe 5529 e93d
00000140: e0a0 133f 9539 1dbc 48e0 b1be ea38 933f
00000150: d72c 3dbe ef6b 963f 91e9 16bf 10e0 a4bf
00000160: 46ec 543f 41e6 b5be 4cca 1abf eeec 343d
00000170: 3569 6a3e 27de 8d3e 22b8 03bf 6506 7b3e
00000180: b7eb 923f 54e7 be3d 13ad 8abd 844a 983e
00000190: 55f0 ad3f 8bd9 083d 8222 c2bc 6a6a 9b3f
000001a0: 6a49 f33e 181f 0b3e 7130 2ebf f496 aebe
000001b0: db77 893f f1f2 93bd 84d0 a6be 44f9 433f
000001c0: 70b3 993e ab2a 793e 82a8 29bf 975c 4c3d
000001d0: 067c f3bd ec4b 953e ed01 973e 0069 00bf
000001e0: 5aab 3f3f 7129 26bf e1fe a7bf 3c43 893f
000001f0: 6701 833e 7fc0 cd3d 4c95 0cbc e1dc ab3e
00000200: 46b6 d03b e408 e43d a74c 6e3f 1b61 0abe
00000210: 92ed 7fbf 5c93 3d3f 31ce 743e f0bc 8cbf
00000220: be67 343e fb30 573f c2ac f43e 4bdb 923e
00000230: 74db 5fbe ef6c 563f 7399 933d e035 3b3f
00000240: a0a1 513f 0a54 723e 5ebc af3f 10b6 593e
00000250: b2aa cd3d 0336 a13d 802b a4bf 5f2d 193d
00000260: ee4d 9cbd 0932 79bf f2f2 52bf 8828 44bf
00000270: bd61 eebe f239 343e f651 84bf 256d 3b3e
00000280: 5ad4 493e 8e89 83bf d61e aebe 3e7d bc3d
00000290: 63e5 433f 7320 a03e 771c d9bd bac8 c4bd
000002a0: 4345 b3be 7ae0 f1be f25a 093e 0654 b43f
000002b0: 1b55 84bf 76c8 90bf 35e5 d33e 693b 99be
000002c0: 8586 e23d 2d29 2e3e cb55 f23e 02ff 233e
000002d0: c72c 453f 03f8 b4bd f091 953f 7cc5 78bf
000002e0: 0fb7 38bf 0361 86bf e58a 183f 6943 b1be
000002f0: 8c2b babf a484 13bd e89a eb3c da82 27bf
00000300: 3eff 0e3e f04f cc3e fc9f 82bf 178f 873e
00000310: 5592 543f 1098 013f 5844 3fbd b8a2 4f3e
00000320: a00f 143e be2b bebe 43ac 00be 22ff 2cbf
00000330: dec2 6abf 6194 643f 7e1d 19bd 8eae 443d
00000340: 5e6b b13f 69ed a8be 3985 6b3c 55d8 96bf
00000350: df38 673e 0c38 013f 267d 193e ae3d 4cbf
00000360: 0bcd d03e ee05 abbd 42a3 633c 5535 de3e
00000370: da33 34bf 2160 e8be c11f 8e3f c145 b33e
00000380: e9d5 b0be 52c2 0e3f 66a8 25bd f4b5 173d
00000390: 3edd 9b3e 3151 c9bd f388 b4bf 428f a63d
000003a0: c685 4c3f 2969 4fbf 6510 943e cadf 3ebf
000003b0: 4a4c c1be e991 a53f 3f4d 61bf 3d06 293f
000003c0: 243c 5a3f 0550 8dbf 30b2 a2be 3d1e 86bc
000003d0: 2465 333f 1741 28bf f001 87bf 92d5 a4bf
000003e0: 46cd a6bd f5d5 a8be d70f 293e 84a1 dbbd
000003f0: 8187 093d 279b 4a3f c9a8 b03f 380b 8fbf
0.85128224 0.015930695 0.04434685 0.6592516 0.43439028 1.0610235 0.56722987 0.36441755
-0.4967274 0.20594823 -0.7893306 0.78014135 -0.28128052 0.21448882 0.12971728 0.80616856
-0.13782132 -0.15684214 -0.40265766 0.37764168 0.8382086 0.7307884 -1.2842325 -1.1414112
0.42445835 0.14419022 -0.05020344 -0.2970196 0.2888194 0.046898745 -1.4562498 0.12110818
-0.50083494 -0.015626566 -0.044605978 1.2561436 0.055984657 -0.9396918 0.9744653 -0.25068766
0.49561372 0.8175199 0.042912334 -0.23923162 -0.38327822 0.49833998 -1.4471707 0.76932096
-0.13613258 -0.12579703 -0.67101645 0.35202038 -0.032402076 -0.38502407 -0.04436818 -0.5479875
0.45056343 0.3236384 -1.2144973 0.14154088 0.42380273 0.42299193 -0.26623192 -0.7563914
0.03278957 -1.072926 -0.41625553 -0.41811237 -0.24403276 -0.24240518 -0.8206709 0.61862576
1.3507152 -1.0760605 0.34797168 -0.8552824 -0.073946595 -0.45441082 -0.36379716 0.113848366
0.5766735 -0.009596248 -0.34741426 1.1501744 -0.18474136 1.1751689 -0.58950144 -1.2880878
0.83173025 -0.35527232 -0.6046493 0.044171266 0.22891696 0.2770855 -0.5145284 0.24514158
1.1478184 0.09321466 -0.067712925 0.2974435 1.3588969 0.03341059 -0.023698095 1.214185
0.47516948 0.1358608 -0.68042666 -0.34099543 1.0739702 -0.07224072 -0.3258096 0.76552224
0.30019712 0.24332683 -0.6627275 0.049892988 -0.1188889 0.29159486 0.29493657 -0.5016022
0.74870837 -0.64906985 -1.3124658 1.0723643 0.25587007 0.10046481 -0.008580517 0.33566955
0.006369385 0.11134508 0.9308571 -0.13513605 -0.9997188 0.7405298 0.23906781 -1.0995159
0.176177 0.84059113 0.47788054 0.28682932 -0.21861058 0.8375997 0.072070025 0.7312908
0.81887245 0.23664871 1.372936 0.21260858 0.10042323 0.0787163 -1.2825775 0.037396785
-0.076320514 -0.9734197 -0.82401955 -0.76624346 -0.46558943 0.1760023 -1.0337512 0.18303354
0.19709912 -1.0276353 -0.340079 0.092035756 0.7652189 0.31274757 -0.10601132 -0.09608598
-0.3501378 -0.47241575 0.13413599 1.4088142 -1.0338472 -1.1311176 0.4138581 -0.2992814
0.11060814 0.17007895 0.4733108 0.16015247 0.7702145 -0.08836367 1.1685162 -0.9717634
-0.72154325 -1.0498356 0.59586936 -0.34621742 -1.454454 -0.036015168 0.028760388 -0.6543404
0.13964555 0.39904737 -1.0205073 0.26476356 0.83035785 0.50622654 -0.046696037 0.20276916
0.14459085 -0.37142748 -0.12565713 -0.675768 -0.91703594 0.8928891 -0.03738164 0.04801803
1.3860891 -0.3299363 0.0143750245 -1.1784769 0.22580288 0.50476146 0.14989147 -0.79781616
0.40781435 -0.083507404 0.013893904 0.43400064 -0.7039162 -0.4538584 1.110344 0.35014156
-0.345382 0.5576526 -0.0404438 0.03703876 0.30442232 -0.09829939 -1.4104294 0.08132793
0.7989162 -0.81019837 0.28918758 -0.74560225 -0.37753516 1.2935153 -0.88008493 0.66025144
0.8524802 -1.1040045 -0.3177657 -0.01637184 0.70076203 -0.6572432 -1.0547466 -1.2877676
-0.081446216 -0.32975736 0.16509949 -0.10724166 0.033576492 0.79142994 1.3801509 -1.1175299

linear.bias f4 [6]
00000000: ebd1 95ba 111e b1be 1193 2bbd 0e07 4cbe
00000010: 92c1 813e 9c8f d63d
-0.0011430358 -0.3459325 -0.0418883 -0.19924566 0.25342995 0.1047661

exp_avg f4 [200, 34]
00000000: 6329 803c 6ca9 e13b a977 db29 42ef 2b29
00000010: d4b0 1d3c 740b 8f3b ebc4 2a3e 94ad 7c3d
00000020: cee1 3d3e d853 813d 4c5e 273e e1ba 9a3d
00000030: e159 3b3e cbbb 983d faf8 083e 7bd6 aa3d
00000040: aedd 533e 7dbe 9b3d 5630 003e 6b03 bb3d
00000050: ccc3 623e 2f7f 8c3d 3dae 263e adbd 003e
00000060: 8a01 3d3e ec83 023e 306b 303e 77b1 283e
00000070: 6f8c 3e3e d521 2c3e 5c39 333e 48d0 4a3e
00000080: 1eb5 413e 8811 583e fb42 8428 c1ec 1928
00000090: 19ad 8428 1c55 1828 49de 8328 c582 1728
000000a0: 912d 8428 d5f9 1a28 de9f 3eaf 0a6f 94ae
000000b0: 5a41 13af ea51 9cae fe95 3baf 6f93 bcae
000000c0: bb73 652a 4161 e929 0400 0080 0400 0080
000000d0: 1b30 6a2a ebfb 0d2a 0000 0000 0000 0000
000000e0: 8474 0aaf 5d91 2aaf 9990 29af 7995 32af
000000f0: 0000 0000 0000 0000 0000 0000 0000 0000
00000100: 0000 0000 0000 0000 0000 0000 0000 0000
00000110: 0000 0000 0000 0000 0000 0000 0000 0000
00000120: 0000 0000 0000 0000 0000 0000 0000 0000
00000130: 219b 3a17 a395 5116 9b63 2b13 f568 8212
00000140: 73ce 1817 ea1d 3816 1294 2f13 7f91 b212
00000150: fde1 3717 1b9a 4316 4535 3313 873f d912
00000160: 09d9 5617 6cc1 3e16 0000 0000 0000 0000
00000170: 0000 0000 0000 0000 0000 0000 0000 0000
00000180: 0000 0000 0000 0000 0000 0000 0000 0000
00000190: 0000 0000 0000 0000 0000 0000 0000 0000
000001a0: 0000 0000 0000 0000 0000 0000 0000 0000
000001b0: 0000 0000 0000 0000 0000 0000 0000 0000
000001c0: 0000 0000 0000 0000 0000 0000 0000 0000
000001d0: 0000 0000 0000 0000 0000 0000 0000 0000
000001e0: 0000 0000 0000 0000 0000 0000 0000 0000
000001f0: 0000 0000 0000 0000 0000 0000 0000 0000
00000200: 0000 0000 0000 0000 0000 0000 0000 0000
00000210: 0000 0000 0000 0000 0000 0000 0000 0000
00000220: 1fcf be3c b36f 733c 74d1 c43c 4702 6e3c
00000230: fbe7 bc3c 20af 6e3c f1c7 34bd 7cfe 34bc
00000240: 9749 9dbd 6afb d2bc d4ed 10bd 4d8d 6fbc
00000250: 2588 53bd 039e 78bc 79bf 00bc 951d 44bb
00000260: 14ee 70bd 7cc4 a3bc d9c8 f73c 6836 cc3c
00000270: 3e8e 6ebd 857f 55bc c254 13bd 694a ddbc
00000280: 2dd1 43bd 0260 e0bc 7731 23bd 2173 0abd
00000290: 0c69 56bd 100b 10bd 7d3e 0fbd 91d7 34bd
000002a0: b323 42bd 41f6 44bd 0000 0000 0000 0000
000002b0: 0000 0000 0000 0000 0000 0000 0000 0000
000002c0: e0e0 12ad e2e4 37ac 0000 0000 0000 0000
000002d0: bc00 0cad 44ce 58ac 0000 0000 0000 0000
000002e0: 21c3 06ad e3e5 2cac 0000 0000 0000 0000
000002f0: 4006 16ad cfd2 0cac 0000 0000 0000 0000
00000300: e48f 5825 060d 0125 f16d 4925 b107 0125
00000310: 0f46 5025 604b 2b25 3228 4425 034d 2b25
00000320: b740 5025 b281 4f25 4c67 4025 8287 5525
00000330: b5d9 60bc 0aed b6bb 5361 c737 8085 6937
00000340: e020 60bc 863d b5bb f656 40bd 8fa9 99bc
00000350: 09e3 88bd 5cb3 cabc aed4 7abd 5e3d fbbc
00000360: 59a1 86bd 8bcf f9bc 44d0 74bd bb0b 1cbd
00000370: bf90 81bd 9b4c 16bd ac7d 78bd 7e20 2ebd
00000380: 1b89 64bd 729a 27bd 7ddd 7bbd 1f12 42bd
00000390: 58af 84bd 0bd8 41bd e11f 8bbd 7ea4 74bd
000003a0: 6760 89bd 7ee5 79bd 6bde 87bd 214f 95bd
000003b0: 9b37 78bd f32f 99bd d8ae 0e22 9ede 3721
000003c0: bc36 1322 8c8c 2d21 d804 0e22 8900 3021
000003d0: 3251 87ac 7d14 1dac fe15 9e9d cf0a 399d
000003e0: b90f 89ac aa49 34ac c0dd b733 4cde 2033
000003f0: aed9 72ac a05b 3cac e4bf b833 8578 5b33
0.015644735 0.0068866517 9.7463114e-14 3.817715e-14 0.009624679 0.004365379 0.1667668 0.061688974
0.18543169 0.0631482 0.16344565 0.075551756 0.18296005 0.07457694 0.13376227 0.0834169
0.20690033 0.07604692 0.12518439 0.09131511 0.22145003 0.06860196 0.16277404 0.12572356
0.18457618 0.12745637 0.17228389 0.16473947 0.18608259 0.16809781 0.1750235 0.19806015
0.18916747 0.21100438 1.4683992e-14 8.544544e-15 1.4730013e-14 8.45615e-15 1.4640322e-14 8.41054e-15
1.4674705e-14 8.602891e-15 -1.7337196e-10 -6.749985e-11 -1.339279e-10 -7.1086095e-11 -1.7060839e-10 -8.57544e-11
2.0379438e-13 1.03641495e-13 -6e-45 -6e-45 2.0800065e-13 1.2610717e-13 0.0 0.0
-1.2592422e-10 -1.5513053e-10 -1.5421832e-10 -1.6242109e-10 0.0 0.0 0.0 0.0
0.0 0.0 0.0 0.0 0.0 0.0 0.0 0.0
0.0 0.0 0.0 0.0 6.029564e-25 1.6930103e-25 2.1632344e-27 8.230027e-28
4.9374424e-25 1.4872841e-25 2.216111e-27 1.1269247e-27 5.9415726e-25 1.5800602e-25 2.261924e-27 1.3710286e-27
6.9421066e-25 1.5409111e-25 0.0 0.0 0.0 0.0 0.0 0.0
0.0 0.0 0.0 0.0 0.0 0.0 0.0 0.0
0.0 0.0 0.0 0.0 0.0 0.0 0.0 0.0
0.0 0.0 0.0 0.0 0.0 0.0 0.0 0.0
0.0 0.0 0.0 0.0 0.0 0.0 0.0 0.0
0.0 0.0 0.0 0.0 0.0 0.0 0.0 0.0
0.023292122 0.014858174 0.024025656 0.01452691 0.023059836 0.01456812 -0.04413599 -0.011047002
-0.07680052 -0.02575465 -0.03538306 -0.014621091 -0.05164351 -0.015174392 -0.007858151 -0.0029924859
-0.0588208 -0.019991152 0.030247139 0.024928287 -0.05824112 -0.013030891 -0.035969503 -0.02701302
-0.047806907 -0.02738953 -0.039842095 -0.0338012 -0.052346274 -0.0351668 -0.034971703 -0.044150893
-0.047397327 -0.04808641 0.0 0.0 0.0 0.0 0.0 0.0
-8.3490714e-12 -2.613292e-12 0.0 0.0 -7.958242e-12 -3.0809947e-12 0.0 0.0
-7.6603454e-12 -2.4570283e-12 0.0 0.0 -8.527901e-12 -2.0012219e-12 0.0 0.0
1.8783766e-16 1.1193379e-16 1.747122e-16 1.1191572e-16 1.8064861e-16 1.4857424e-16 1.7013909e-16 1.4857978e-16
1.806305e-16 1.799833e-16 1.6688344e-16 1.8520717e-16 -0.01372378 -0.0055824565 2.3767969e-05 1.3918965e-05
-0.013679713 -0.005531016 -0.046957932 -0.01875761 -0.066839285 -0.024743728 -0.061237983 -0.03066891
-0.065737434 -0.030494472 -0.05976893 -0.038097125 -0.06326436 -0.03669415 -0.060666725 -0.042511456
-0.055794816 -0.040918775 -0.061490525 -0.047380563 -0.06478757 -0.047325175 -0.0679319 -0.059727184
-0.067078404 -0.061009876 -0.0663422 -0.07290483 -0.060599905 -0.07479849 1.933715e-18 6.2297443e-19
1.9951191e-18 5.880069e-19 1.9247153e-18 5.963183e-19 -3.8459453e-12 -2.2322415e-12 -4.184499e-21 -2.4490134e-21
-3.8955198e-12 -2.562043e-12 8.561938e-08 3.745508e-08 -3.4511105e-12 -2.676727e-12 8.6030724e-08 5.1099523e-08

exp_avg_sq f4 [200, 34]
00000000: 3c6a 063c 0273 c93a 8ebf ae28 3b33 5727
00000010: 6251 b73b 8bed 773a 421f e23d bc0d a93c
00000020: c290 073e 4ec3 af3c c435 d73d fe91 f83c
00000030: 9970 0e3e 3d07 fd3c d8dc 9e3d e373 fe3c
00000040: d519 283e 7634 003d f4a4 913d 9d55 053d
00000050: 47e0 353e 4028 e93c 1037 dc3d b165 983d
00000060: 979e 043e 874f 9a3d 98b0 df3d de1f f93d
00000070: 44a8 053e 1213 fa3d 4007 dd3d 7910 303e
00000080: 399e 053e 944f 323e a5d1 121d 5fe0 461c
00000090: 2bbe 131d 2dc6 421c 4a83 111d 31ae 401c
000000a0: 6029 151d da38 4b1c cae5 1328 3c5d b326
000000b0: 150c b127 ab5a c726 5038 0f28 dfbd 1027
000000c0: 2118 d118 baea 9117 f401 0000 f401 0000
000000d0: 753e f818 af98 5517 0000 0000 0000 0000
000000e0: 1d05 9c27 66c9 ec27 8b02 ea27 63c8 0128
000000f0: 0000 0000 0000 0000 0000 0000 0000 0000
00000100: 0000 0000 0000 0000 0000 0000 0000 0000
00000110: 0000 0000 0000 0000 0000 0000 0000 0000
00000120: 0000 0000 0000 0000 0000 0000 0000 0000
00000130: 1af6 0800 81b0 0000 0000 0000 0000 0000
00000140: 7f86 0800 be1a 0100 0000 0000 0000 0000
00000150: c46f 0b00 2215 0100 0000 0000 0000 0000
00000160: 6860 0e00 f2e9 0000 0000 0000 0000 0000
00000170: 0000 0000 0000 0000 0000 0000 0000 0000
00000180: 0000 0000 0000 0000 0000 0000 0000 0000
00000190: 0000 0000 0000 0000 0000 0000 0000 0000
000001a0: 0000 0000 0000 0000 0000 0000 0000 0000
000001b0: 0000 0000 0000 0000 0000 0000 0000 0000
000001c0: 0000 0000 0000 0000 0000 0000 0000 0000
000001d0: 0000 0000 0000 0000 0000 0000 0000 0000
000001e0: 0000 0000 0000 0000 0000 0000 0000 0000
000001f0: 0000 0000 0000 0000 0000 0000 0000 0000
00000200: 0000 0000 0000 0000 0000 0000 0000 0000
00000210: 0000 0000 0000 0000 0000 0000 0000 0000
00000220: 355e a33c fb7c a83b 33c5 aa3c cbbf 9c3b
00000230: c387 9f3c ce2e 9c3b 38e6 243d 94c9 053c
00000240: a42b c33c c8d2 8a3b 6cf7 283d ba91 513c
00000250: f1be 1d3d 3777 4e3c fd8f 123d 6220 733c
00000260: 053f 223d 918d 943c 75a6 e33c f246 653c
00000270: af6e 173d 3342 953c 9ab6 263d 9d5c ea3c
00000280: a086 1f3d 9db4 ea3c e558 293d 9f50 3a3d
00000290: fc3d 243d 1ad5 3a3d e6f3 2c3d 4cbc 823d
000002a0: 79d3 263d 622e 833d 0000 0000 0000 0000
000002b0: 0000 0000 0000 0000 0000 0000 0000 0000
000002c0: c71d 9926 626c c324 0000 0000 0000 0000
000002d0: 27ca 8f26 edd7 2625 0000 0000 0000 0000
000002e0: 02ea 6426 f358 1b25 0000 0000 0000 0000
000002f0: ce07 8d26 21a2 a324 0000 0000 0000 0000
00000300: bc1e 6311 854d a110 f77c 4411 1840 a110
00000310: 5d11 5211 3b18 0e11 2256 3a11 d71a 0e11
00000320: 8a06 5211 3986 5011 1246 3311 83cd 5c11
00000330: 6597 893a dbc6 0639 36cb cf36 b099 b835
00000340: 1360 873a 4c5f fc38 76a8 073d 71d0 bd3b
00000350: 213b 253d 4459 c23b e745 003d a3c4 1c3c
00000360: 0b98 2e3d 921b 1d3c ddbc f23c 6493 823c
00000370: fce2 373d f09d 843c 3111 f53c cc80 a73c
00000380: ec6e 383d 2f22 a73c 5dea 073d df66 bb3c
00000390: 5b8d 253d 3a31 bc3c a021 0e3d 8725 173d
000003a0: 7ccb 273d 9831 193d 16fe 0c3d 3940 5b3d
000003b0: 6c54 223d 24d1 603d 6886 8021 9d8c 4d20
000003c0: 17c0 8521 a4ba 4320 5ed6 7e21 bad4 4320
000003d0: fe88 9021 969d 5420 7479 ca20 b6d2 0a20
000003e0: f825 9a21 27a1 9220 4d2d d82c 1053 292c
000003f0: 6b86 6321 9205 7e20 d257 bc2c 37ab 4d2c
0.008204039 0.0015369358 1.9400954e-14 2.9865016e-15 0.0055944184 0.0009457699 0.11041118 0.020636432
0.13238814 0.021455433 0.10508302 0.030343052 0.1391014 0.03088724 0.07756966 0.031061118
0.16416104 0.03130003 0.071115404 0.03255235 0.17761336 0.028461576 0.1075269 0.07441271
0.12951122 0.075347 0.109223545 0.12164281 0.1305247 0.122106686 0.107923985 0.17193784
0.13048638 0.17413169 1.9431323e-21 6.5802697e-22 1.9553603e-21 6.444535e-22 1.9258465e-21 6.375261e-22
1.9741376e-21 6.7240545e-22 8.209967e-15 1.2445891e-15 4.914047e-15 1.3832974e-15 7.9503055e-15 2.0086944e-15
5.4049598e-24 9.429659e-25 7e-43 7e-43 6.4169563e-24 6.9016726e-25 0.0 0.0
4.330424e-15 6.5721515e-15 6.4950804e-15 7.2043905e-15 0.0 0.0 0.0 0.0
0.0 0.0 0.0 0.0 0.0 0.0 0.0 0.0
0.0 0.0 0.0 0.0 8.22969e-40 6.3318e-41 0.0 0.0
7.82932e-40 1.01429e-40 0.0 0.0 1.050284e-39 9.9417e-41 0.0 0.0
1.320281e-39 8.3924e-41 0.0 0.0 0.0 0.0 0.0 0.0
0.0 0.0 0.0 0.0 0.0 0.0 0.0 0.0
0.0 0.0 0.0 0.0 0.0 0.0 0.0 0.0
0.0 0.0 0.0 0.0 0.0 0.0 0.0 0.0
0.0 0.0 0.0 0.0 0.0 0.0 0.0 0.0
0.0 0.0 0.0 0.0 0.0 0.0 0.0 0.0
0.019942382 0.005141852 0.020845985 0.0047836057 0.019473916 0.0047663217 0.040258616 0.008165736
0.02382452 0.004236553 0.041251585 0.012791092 0.038512174 0.012601665 0.03578185 0.014839264
0.03961088 0.01813391 0.027789334 0.013993965 0.03697079 0.018220043 0.040701486 0.028608615
0.038946748 0.028650576 0.041344542 0.045487043 0.040098175 0.045613386 0.042224787 0.06383571
0.04072902 0.06405331 0.0 0.0 0.0 0.0 0.0 0.0
1.0624579e-15 8.475138e-17 0.0 0.0 9.977412e-16 1.4471363e-16 0.0 0.0
7.942053e-16 1.3474244e-16 0.0 0.0 9.785956e-16 7.096464e-17 0.0 0.0
1.7916613e-28 6.362274e-29 1.5500182e-28 6.3602055e-29 1.657143e-28 1.1209291e-28 1.4699355e-28 1.1210096e-28
1.6568094e-28 1.6449667e-28 1.4142202e-28 1.7418268e-28 0.001049739 0.00012853315 6.1927376e-06 1.3753797e-06
0.0010328315 0.00012034047 0.03311964 0.0057926704 0.040339593 0.0059310514 0.031316664 0.009568366
0.04262547 0.009589093 0.029631073 0.015939422 0.044894204 0.016188592 0.029915424 0.020447157
0.04502766 0.020402042 0.03318249 0.022876201 0.04041801 0.022972692 0.034700036 0.036901023
0.040965542 0.037400812 0.034422003 0.053528044 0.039631292 0.054886952 8.709194e-19 1.74107e-19
9.063276e-19 1.6578897e-19 8.634226e-19 1.6587528e-19 9.794081e-19 1.8009239e-19 3.4300502e-19 1.1758773e-19
1.0445496e-18 2.4840004e-19 6.1441186e-12 2.4062453e-12 7.708849e-19 2.151648e-19 5.3530314e-12 2.9227295e-12

exp_avg f4 [200, 50]
00000000: 06c1 68b9 29ed 1cba a6a1 3712 7e9d 3db8
00000010: bed8 ecb9 b017 b2b9 3c20 0739 7f72 202a
00000020: 1983 4236 9ca1 cf2c d14f b6b7 dfdd 53b8
00000030: 286b 8b2d 5eb5 1fb6 7090 f537 a616 2236
00000040: e7db 2e3a 510c b438 f9b1 8dac 6c76 b539
00000050: c9ce af37 4480 a437 7d08 79b7 fd40 0e38
00000060: 0e94 b5b4 c693 063a c9a3 4495 b93d b135
00000070: e4cc d8ad 439c 8d2d 1e67 2e3a d83c 43ae
00000080: d641 ef39 8cbf ad36 d2d0 73b8 1070 b038
00000090: 226d c2b2 d010 b539 e5ed 5d39 f42b e037
000000a0: 2003 71b5 a1ec 85b6 d8eb c5a1 7767 0f37
000000b0: 2fa5 013a a961 812d dfa2 213a 56aa cc39
000000c0: ab5b b3ac c741 22ba 4f63 7c26 e0e5 442b
000000d0: 0000 0000 4d3a 9828 9ec5 d5a5 4617 1126
000000e0: 7ce4 041d 0400 0080 c8ef 442b 0000 0000
000000f0: 1b7a bb20 e6e5 44ab 0000 0000 0000 0000
00000100: b4f2 44ab 0000 0000 e0e5 44ab 51d3 9a0e
00000110: 0000 0000 6284 e025 2ba6 0280 e2db a987
00000120: 9a2f 44ab ff74 bc25 4096 eb90 d4f4 15ab
00000130: 0000 0000 6acd 0621 c2fd 8d85 0000 0000
00000140: 24ef 44ab 0000 0000 ff30 16ab 855f fe25
00000150: f3ec 152b dce6 f721 0400 0000 f424 452b
00000160: 9dad 47a1 57e8 44ab b23f 3d9c b7ed e625
00000170: 0000 0000 1d00 009e cff4 15ab 0000 0000
00000180: 4a47 44ab 320e 45ab 0000 0000 e0e5 442b
00000190: 0b47 0813 8bad d392 0000 0000 b996 9592
000001a0: 1a37 8b10 21e3 e80e 174c a80e 0000 0000
000001b0: 5422 4a91 0000 0000 befb 0993 3290 d112
000001c0: 0000 0000 0000 0000 b40d 7291 71b1 9a8c
000001d0: 8769 0013 918c df11 0000 0000 c0fc c291
000001e0: 0400 0000 61af df11 47c5 778c be24 dd91
000001f0: 55c2 0000 07a2 9f12 0000 0000 0400 0080
00000200: 0000 0000 0000 0000 8c43 d012 0000 0000
00000210: b821 1892 d24b b40e b09c 0413 f578 328f
00000220: 0000 0000 8db3 8e11 aac5 a30e b75e 0513
00000230: 89c9 008c 5b29 dd91 0000 0000 f07f 0400
00000240: d000 d112 0000 0000 ecbb c712 1967 0492
00000250: 0000 0000 c78f d192 0000 0000 0000 0000
00000260: 0000 0000 0000 0000 0000 0000 0000 0000
00000270: 0000 0000 0000 0000 0000 0000 0000 0000
00000280: 0000 0000 0000 0000 0000 0000 0000 0000
00000290: 0000 0000 0000 0000 0000 0000 0000 0000
000002a0: 0000 0000 0000 0000 0000 0000 0000 0000
000002b0: 0000 0000 0000 0000 0000 0000 0000 0000
000002c0: 0000 0000 0000 0000 0000 0000 0000 0000
000002d0: 0000 0000 0000 0000 0000 0000 0000 0000
000002e0: 0000 0000 0000 0000 0000 0000 0000 0000
000002f0: 0000 0000 0000 0000 0000 0000 0000 0000
00000300: 0000 0000 0000 0000 0000 0000 0000 0000
00000310: 0000 0000 0000 0000 0000 0000 0000 0000
00000320: 4fa4 feb5 0f39 f938 d2bd f309 e770 9eb6
00000330: f984 c838 2cc8 2836 200d 8937 4082 772d
00000340: f453 1737 213b 9fac 5692 1eb6 1f22 e6b8
00000350: 1d8b 01af a075 5933 4419 2e39 d413 ed36
00000360: bb6c 26b9 c3c8 4c38 8adc c4ae 8f05 e738
00000370: 1b30 6037 db86 5ab8 f060 83b7 c30e a736
00000380: 3382 db30 5c1e b9b8 bd14 bf8b 96a1 f935
00000390: 364b b6b1 b63d 29a9 bb72 ebb8 576a ed15
000003a0: 33d2 45b9 5e21 8c35 10cd 37b9 4f3d f538
000003b0: 3082 13b2 f2e2 dcb9 8f83 ebb7 c9e3 8437
000003c0: 3a24 bb36 2607 5eb7 31c3 7027 9f53 b8b7
000003d0: be1a 58b9 9816 a636 98e2 0bb9 7dd9 1cb9
000003e0: 4968 d4ae dba2 e938 9410 a819 06c3 d728
000003f0: 0000 0000 6469 a928 2b09 b028 64de a0a8
-0.00022197151 -0.00059862674 5.7943865e-28 -4.5207787e-05 -0.00045174913 -0.00033968454 0.00012886612 1.4250579e-13
2.8984562e-06 5.901236e-12 -2.1733258e-05 -5.0512954e-05 1.5850057e-11 -2.3798416e-06 2.9273535e-05 2.4153064e-06
0.0006670341 8.585363e-05 -4.02722e-12 0.0003461124 2.0957918e-05 1.9610052e-05 -1.4843533e-05 3.3915963e-05
-3.38216e-07 0.00051337143 -3.971109e-26 1.3205491e-06 -2.4647347e-11 1.6099238e-11 0.0006652939 -4.4391907e-11
0.00045634684 5.1781008e-06 -5.8130194e-05 8.413207e-05 -2.26342e-08 0.00034535537 0.00021164825 2.6723348e-05
-8.9784044e-07 -3.991256e-06 -1.3411667e-18 8.547554e-06 0.0004945574 1.4708972e-11 0.0006165932 0.00039036822
-5.097663e-12 -0.0006189611 8.756465e-16 6.9952204e-13 0.0 1.6900674e-14 -3.708352e-16 5.033852e-16
1.7588178e-21 -6e-45 6.996595e-13 0.0 3.1759835e-19 -6.9952236e-13 0.0 0.0
-6.9970006e-13 0.0 -6.9952204e-13 3.816742e-30 0.0 3.8947512e-16 -2.43281e-40 -2.555753e-34
-6.969925e-13 3.269208e-16 -9.2922653e-29 -5.32752e-13 0.0 4.567283e-19 -1.3352792e-35 0.0
-6.996506e-13 0.0 -5.33587e-13 4.4126703e-16 5.3264267e-13 1.6798479e-18 6e-45 7.003974e-13
-6.76536e-19 -6.9955624e-13 -6.261718e-22 4.0059722e-16 0.0 -6.776287e-21 -5.3275174e-13 0.0
-6.973212e-13 -7.000816e-13 0.0 6.9952204e-13 1.720064e-27 -1.3358754e-27 0.0 -9.440378e-28
5.491073e-29 5.7411133e-30 4.148847e-30 0.0 -1.5945568e-28 0.0 -1.741595e-27 1.3225301e-27
0.0 0.0 -1.9094657e-28 -2.383425e-31 1.62079e-27 3.5269827e-28 0.0 -3.0763572e-28
6e-45 3.5291282e-28 -1.9087554e-31 -3.4890296e-28 6.9713e-41 1.0074254e-27 0.0 -6e-45
0.0 0.0 1.3143297e-27 0.0 -4.8004305e-28 4.444644e-30 1.6737995e-27 -8.799373e-30
0.0 2.2514306e-28 4.0372946e-30 1.6833658e-27 -9.921409e-32 -3.489314e-28 0.0 4.13237e-40
1.3189955e-27 0.0 1.2604992e-27 -4.1778933e-28 0.0 -1.3225198e-27 0.0 0.0
0.0 0.0 0.0 0.0 0.0 0.0 0.0 0.0
0.0 0.0 0.0 0.0 0.0 0.0 0.0 0.0
0.0 0.0 0.0 0.0 0.0 0.0 0.0 0.0
0.0 0.0 0.0 0.0 0.0 0.0 0.0 0.0
0.0 0.0 0.0 0.0 0.0 0.0 0.0 0.0
0.0 0.0 0.0 0.0 0.0 0.0 0.0 0.0
-1.8972295e-06 0.00011883873 5.867863e-33 -4.7219105e-06 9.561511e-05 2.5150466e-06 1.6337784e-05 1.4069246e-11
9.019848e-06 -4.5256164e-12 -2.3629013e-06 -0.0001097361 -1.1781905e-10 5.063123e-08 0.00016603345 7.0654587e-06
-0.00015871499 4.8824364e-05 -8.952224e-11 0.00011015974 1.3362641e-05 -5.2100844e-05 -1.5661557e-05 4.9787063e-06
1.5971352e-09 -8.827142e-05 -7.360173e-32 1.8598973e-06 -5.3054476e-09 -3.7579064e-14 -0.000112270434 9.589131e-26
-0.0001886569 1.0440524e-06 -0.00017528632 0.0001169393 -8.586127e-09 -0.00042130757 -2.8075445e-05 1.5841697e-05
5.5772516e-06 -1.32338955e-05 3.3412504e-15 -2.1973448e-05 -0.00020609327 4.949816e-06 -0.00013340486 -0.0001495834
-9.6591686e-11 0.0001114064 1.7377489e-23 2.3954373e-14 0.0 1.8808475e-14 1.9543901e-14 -1.7860015e-14
