Deep_Learning/Human-Action-Recognition-Using-Detectron2-And-Lstm/lightning_logs/version_2/checkpoints/epoch=119-step=5399.ckpt (torch, 464528 bytes, 30 tensors)

lstm.weight_ih_l0 f4 [200, 34]
-0.018925808 0.01774223 -0.13172592 -0.12323358 0.028621346 -0.04332564 0.008185512 0.063389
0.056973282 0.057789236 0.13928807 -0.08006555 -0.036373645 0.05090753 0.12611474 -0.10399302
0.09879016 -0.15237449 -0.028496215 0.07154366 0.0789673 -0.015836153 -0.12776774 -0.07049891
-0.11392784 0.00613923 0.029404571 -0.1198161 0.1264839 0.13751929 -0.110263854 0.013035374
-0.06407687 -0.08875675 -0.016695581 -0.13288006 -0.03444059 0.102831766 -0.03824094 0.0028022153
0.04237648 0.11561552 0.0226352 -0.09635362 -0.065827005 -0.098969884 0.03115599 0.1252948
0.0819042 0.13136037 0.07169959 0.012389832 -0.06029452 -0.039057683 0.13179246 0.08600307
-0.020494027 -0.09044508 0.042622324 0.035872243 0.07535499 -0.055326726 0.083700545 0.053980015
-0.040079024 0.07970713 0.043733545 0.118706755 0.0753188 -0.007602516 -0.13259165 0.11967608
-0.022928763 0.1332261 -0.0040779607 -0.09185916 -0.02966319 -0.07314655 -0.111566015 -0.122039035
-0.13434835 -0.0574849 -0.12709008 0.1350876 -0.028189989 -0.020640071 0.055021785 0.061805844
0.13438651 -0.087502494 -0.014637281 0.020691322 -0.12743749 -0.022096952 0.10626553 -0.03660825
0.09671965 -0.13346353 -0.07359757 -0.03616198 0.115502566 -0.12400947 -0.049803685 -0.011201335
-0.052528664 0.12690637 0.124905445 0.1221367 0.07188468 0.03569486 0.0655924 0.08229936
-0.08758148 0.087555364 -0.0969623 0.0577395 0.10878773 0.018973265 0.113659196 0.10932544
0.13578479 0.07428178 -0.099581204 0.124041 -0.023314137 0.07378873 -0.0020370584 0.071772836
0.07218078 -0.05274402 0.05823845 -0.038863596 -0.081505634 0.050587382 0.12034838 0.058138058
-0.08070789 0.09663804 0.07369087 0.029733507 -0.13907064 -3.3447926e-05 0.09257457 0.1193029
0.022423606 0.034154434 -0.007750104 -0.00873496 0.011734102 -0.09119346 0.01830669 -0.0311666
-0.04002129 -0.014465232 0.10985841 0.056146283 0.058477867 -0.09373659 0.107120864 -0.042675354
-0.0006755184 -0.05727033 -0.07801779 -0.043188795 0.027911467 0.02106065 0.114020474 0.03264211
-0.11109416 0.0017306416 0.09927723 0.03779318 -0.015898196 0.09842663 0.12442015 -0.0145835355
0.015340068 0.10794631 -0.10650781 -0.049839124 -0.051543873 0.055807758 0.114206165 0.09750583
0.07983714 -0.12266516 0.11326484 0.0011942731 -0.01238955 -0.102163434 0.11657942 0.006876444
-0.1038099 0.1185135 0.13756499 0.041082356 -0.04966895 0.073989585 -0.047894113 0.120599605
0.0773787 -0.04955463 -0.003638133 -0.08337065 -0.11577949 -0.044812605 -0.116625205 0.03399312
0.096223414 -0.14015234 -0.04505007 -0.06293085 0.021878371 0.059888866 -0.039970003 -0.14010215
0.027451351 0.0753324 -0.08952933 -0.0029843904 0.12064953 0.122405805 0.12160395 0.037340906
-0.11035457 0.08915863 -0.012551014 -0.10463456 0.049046688 -0.053055152 0.0055543333 0.08443509
0.010447725 -0.10775554 -0.06991341 -0.040532436 -0.09667177 -0.09912501 0.03313028 -0.052554954
0.039091326 -0.121624246 -0.14172223 -0.027284812 0.074605554 -0.083423264 0.036898468 0.039123528
-0.06435194 0.11544049 0.063292935 0.12926815 0.0837058 0.03777774 -0.08157392 0.040235534
00000000: 4c0a 9bbc 2758 913c 29e3 06be e361 fcbd
00000010: 5077 ea3c 3a76 31bd 871c 063c 18d2 813d
00000020: d15c 693d 68b4 6c3d 88a1 0e3e 68f9 a3bd
00000030: 88fc 14bd 6a84 503d 3924 013e 4bfa d4bd
00000040: 7f52 ca3d 0f08 1cbe e570 e9bc 7b85 923d
00000050: 9cb9 a13d d2ba 81bc 8cd5 02be bc61 90bd
00000060: 0053 e9bd 982b c93b dbe1 f03c 2562 f5bd
00000070: ff84 013e dbd1 0c3e 04d2 e1bd 5292 553c
00000080: bc3a 83bd 19c6 b5bd 2cc5 88bc b611 08be
00000090: 9311 0dbd 7699 d23d 88a2 1cbd 5fa5 373b
000000a0: f692 2d3d d4c7 ec3d 746d b93c 0c55 c5bd
000000b0: 4fd0 86bd b9b0 cabd d93a ff3c 484d 003e
000000c0: 64bd a73d 5583 063e 3cd7 923d b9fe 4a3c
000000d0: 63f7 76bd f3fa 1fbd 9af4 063e 6122 b03d
000000e0: 17e3 a7bc 453b b9bd bf94 2e3d c6ee 123d
000000f0: b853 9a3d 479e 62bd 316b ab3d 261a 5d3d
00000100: e729 24bd 7e3d a33d f221 333d 871c f33d
00000110: be40 9a3d 871e f9bb 1bc6 07be bc18 f53d
00000120: 1ad5 bbbc 6c6c 083e 6aa0 85bb a820 bcbd
00000130: 3800 f3bc dccd 95bd b97c e4bd 9aef f9bd
00000140: 9d92 09be 4975 6bbd e723 02be 6754 0a3e
00000150: b1ee e6bc 5e15 a9bc 865e 613d 2028 7d3d
00000160: 9e9c 093e 8234 b3bd 35d1 6fbc d980 a93c
00000170: f97e 02be ab04 b5bc bea1 d93d 88f2 15bd
00000180: f414 c63d aaaa 08be 53ba 96bd 961e 14bd
00000190: 9c8c ec3d adf8 fdbd f3fe 4bbd ce85 37bc
000001a0: 4c28 57bd bef3 013e 6dce ff3d ce22 fa3d
000001b0: 4638 933d c634 123d 4f55 863d 918c a83d
000001c0: eb5d b3bd 3a50 b33d 2c94 c6bd 4180 6c3d
000001d0: 1acc de3d d26d 9b3c 27c6 e83d 04e6 df3d
000001e0: 2b0b 0b3e 0c21 983d 3bf1 cbbd 3509 fe3d
000001f0: 4afd bebc 8c1e 973d 2b80 05bb a3fd 923d
00000200: 84d3 933d 1d0a 58bd 718b 6e3d 6f2f 1fbd
00000210: 6dec a6bd b734 4f3d 3679 f63d 2c22 6e3d
00000220: 2e4a a5bd 2aea c53d 3deb 963d af93 f33c
00000230: 8968 0ebe 704a 0cb8 bc97 bd3d 1455 f43d
00000240: b6b1 b73c 85e5 0b3d 96f4 fdbb 141d 0fbc
00000250: 6440 403c a3c3 babd e9f7 953c 1951 ffbc
00000260: 5ded 23bd 95ff 6cbc 72fd e03d a5f9 653d
00000270: 7d86 6f3d f8f8 bfbd 2f62 db3d 5acc 2ebd
00000280: 4615 31ba 4b94 6abd cbc7 9fbd bce6 30bd
00000290: 97a6 e43c 6287 ac3c 9183 e93d bcb3 053d
000002a0: 5685 e3bd b2d6 e23a dc51 cb3d 06cd 1a3d
000002b0: ef3c 82bc e793 c93d fecf fe3d c8ef 6ebc
000002c0: e954 7b3c f412 dd3d c420 dabd 1c24 4cbd
000002d0: ab1f 53bd ad96 643d ece4 e93d 23b1 c73d
000002e0: a881 a33d df37 fbbd 65f7 e73d 2889 9c3a
000002f0: 8afd 4abc 103b d1bd 31c1 ee3d cb53 e13b
00000300: 499a d4bd 35b7 f23d d6dd 0c3e f945 283d
00000310: ab71 4bbd da87 973d 9e2c 44bd edfc f63d
00000320: b978 9e3d ccf9 4abd be6d 6ebb 3bbe aabd
00000330: cc1d edbd 6c8d 37bd 32d9 eebd 5f3c 0b3d
00000340: c810 c53d 1884 0fbe 6c86 38bd e4e1 80bd
00000350: 453a b33c 074e 753d 96b7 23bd f076 0fbe
00000360: a8e1 e03c e047 9a3d 275b b7bd c395 43bb
00000370: 1a17 f73d e5af fa3d 7e0b f93d c7f2 183d
00000380: 9401 e2bd cd98 b63d c5a2 4dbc a54a d6bd
00000390: 2ee5 483d 5c50 59bd 2001 b63b 4eec ac3d
000003a0: ef2c 2b3c f0ae dcbd c32e 8fbd 5705 26bd
000003b0: d9fb c5bd 0e02 cbbd 9eb3 073d dd43 57bd
000003c0: 3a1e 203d 2216 f9bd a21f 11be 6684 dfbc
000003d0: ccca 983d d1d9 aabd d922 173d fe3f 203d
000003e0: f3ca 83bd 106c ec3d ba9f 813d df5e 043e
000003f0: f26d ab3d d5bc 1a3d 3a10 a7bd 04ce 243d

lstm.weight_hh_l0 f4 [200, 50]
-0.104261726 0.091106646 -0.110583305 -0.036553927 -0.046832938 0.14997548 0.119073644 -0.106164314
0.028123548 0.13683863 0.14073382 -0.037106104 0.021540157 -0.061813228 -0.18505563 0.006630293
0.039547145 0.0915261 0.09750392 -0.06395932 0.11881502 0.09395546 -0.0029762767 0.14202683
-0.055857398 -0.036269024 -0.05023038 0.08883972 -0.0694303 0.020602735 0.12375066 0.12948515
0.019490834 -0.03220501 -0.046114657 0.23364261 -0.072700895 -0.016553737 0.11433763 -0.030367829
-0.12775578 0.0025284544 -0.011354631 -0.0046947286 -0.03959998 -0.07130727 0.15855661 -0.012484355
0.065084346 -0.11385067 -0.098255284 0.0138849085 0.11079094 -0.020294135 -0.083735324 0.015043053
-0.05331022 -0.06876815 -0.11307824 -0.064467065 0.026501274 -0.0067348443 -0.07418852 -0.11650153
-0.06777119 0.050108105 -0.11130383 0.06006149 0.024362853 0.1348028 0.09505858 -0.022563772
0.13445951 0.019680787 -0.08003254 -0.057074796 0.12679595 -0.019104358 0.061527893 0.028724512
-0.0057696993 -0.02976156 -0.12894483 -0.118909106 -0.019204825 -0.048203282 -0.059575822 0.07254433
-0.050577804 -0.029174505 0.034887943 0.097241215 0.12503664 -0.089579284 -0.120448224 0.07360664
-0.06570902 0.028907439 0.050619718 0.117004074 0.122875094 0.13565552 -0.124439925 -0.05592558
-0.013703695 -0.13732971 0.118791774 0.12311135 0.05087769 -0.0072779856 -0.13039042 -0.07760973
0.11685599 -0.041478805 -0.07609668 0.09460742 -0.07598259 0.08591721 0.016722556 0.056381527
-0.04195965 -0.03721157 -0.009589083 -0.059684526 -0.12768875 -0.06984891 0.10884286 0.026592758
0.07503556 -0.123883314 -0.034939807 -0.117640644 -0.06549489 -0.09263975 0.005988393 0.03244264
-0.09663059 0.09351155 -0.12752664 0.033251185 0.07395714 -0.058231287 -0.008578132 0.07491659
0.056008562 0.043214347 0.0010628424 -0.04446948 -0.032392368 0.017810822 0.100842126 0.09144032
0.042558003 -0.12671846 -0.13284102 0.027813144 0.13822637 0.113469675 -0.050597157 -0.10983899
-0.0230856 0.106038526 0.11481311 -0.10082567 -0.07984434 -0.009188671 -0.011274822 0.13278657
-0.02278425 0.05463363 0.062066868 -0.03459466 0.13576324 -0.08918874 0.028681723 0.035745353
0.038784325 0.052389767 -0.069904394 -0.13778563 -0.10661388 0.124993466 0.12867765 -0.11600118
0.051164642 0.10065384 -0.015089466 0.11959515 -0.053197518 0.057460267 -0.13890606 0.009375972
0.09544823 -0.12632954 0.12681377 0.03532297 0.08944929 -0.07698335 -0.09573947 -0.06338841
0.019752366 0.05397304 0.12603739 -0.058637105 0.054418143 -0.0059911325 0.128423 -0.06209437
-0.10459065 -0.13927607 -0.16399993 -0.0070524947 -0.015157145 0.110561825 -0.025201686 0.12144889
-0.095630854 0.09955166 -0.0901931 -0.13639098 0.066456705 0.08718003 0.15397446 0.037396017
0.10421759 -0.14566724 0.02827862 -0.12382009 0.17162716 -0.099112935 0.0083779795 0.038680423
-0.12652554 0.020824505 -0.07119989 0.120424315 0.011072078 -0.02667979 0.10543249 -0.11989984
0.18671288 -0.037251707 0.26384768 -0.0958018 -0.04233459 -0.04162325 -0.01436121 0.03149896
-0.11566663 -0.056510203 -0.09333515 0.0044107335 0.037585635 0.106239006 -0.092885405 -0.07256288
00000000: 2c87 d5bd 1f96 ba3d 8079 e2bd 92b9 15bd
00000010: e5d3 3fbd 2c93 193e e2dc f33d ad6c d9bd
00000020: 5b63 e63c 6d1f 0c3e 871c 103e 92fc 17bd
00000030: fc74 b03c de2f 7dbd 397f 3dbe ee42 d93b
00000040: 30fc 213d 0972 bb3d 23b0 c73d 1bfd 82bd
00000050: 4a55 f33d b86b c03d a30d 43bb 7b6f 113e
00000060: baca 64bd d48e 14bd 5fbe 4dbd 99f1 b53d
00000070: 7931 8ebd 11c7 a83c fc70 fd3d c197 043e
00000080: 3eab 9f3c 67e9 03bd b9e2 3cbd 0240 6f3e
00000090: 35e4 94bd b49b 87bc d929 ea3d f4c5 f8bc
000000a0: 69d2 02be 6db4 253b c608 3abc 3dd6 99bb
000000b0: 9733 22bd 8c09 92bd aa5c 223e 2e8b 4cbc
000000c0: f14a 853d 8a2a e9bd 113a c9bd 877d 633c
000000d0: 5ce6 e23d e33f a6bc 6d7d abbd 2377 763c
000000e0: d15b 5abd 51d6 8cbd 9095 e7bd 4f07 84bd
000000f0: 3319 d93c f8af dcbb 27f0 97bd 5b98 eebd
00000100: 9fcb 8abd 283e 4d3d 43f3 e3bd 0903 763d
00000110: 9b94 c73c bf09 0a3e 13ae c23d a9d7 b8bc
00000120: c1af 093e 9a39 a13c 1ae8 a3bd 43c7 69bd
00000130: ccd6 013e be80 9cbc ac04 7c3d ab4f eb3c
00000140: bf0f bdbb 84ce f3bc 1d0a 04be 9e86 f3bd
00000150: 7053 9dbc ce70 45bd c705 74bd 1f92 943d
00000160: ac2a 4fbd 5fff eebc a9e6 0e3d 6726 c73d
00000170: 9b09 003e 5875 b7bd 8fad f6bd 14bf 963d
00000180: 7392 86bd 4bcf ec3c 9f56 4f3d d59f ef3d
00000190: f0a5 fb3d 48e9 0a3e 5cda febd 3912 65bd
000001a0: 7685 60bc 29a0 0cbe 1a49 f33d ce21 fc3d
000001b0: 2065 503d 2b7c eebb 1185 05be daf1 9ebd
000001c0: 3152 ef3d aee5 29bd 93d8 9bbd 89c1 c13d
000001d0: c39c 9bbd 5df5 af3d befd 883c 51f0 663d
000001e0: e2dd 2bbd 296b 18bd 871b 1dbc c377 74bd
000001f0: d7c0 02be f20c 8fbd 01e9 de3d 0ed9 d93c
00000200: 3eac 993d 89b6 fdbd 0b1d 0fbd 94ed f0bd
00000210: 2f22 86bd e9b9 bdbd 483a c43b 93e2 043d
00000220: 42e6 c5bd fc82 bf3d 5896 02be 6532 083d
00000230: d776 973d ee83 6ebd 4b8b 0cbc de6d 993d
00000240: 3c69 653d 8701 313d 134f 8b3a a125 36bd
00000250: dcad 04bd 00e8 913c 5186 ce3d 1045 bb3d
00000260: 4d51 2e3d 7cc2 01be 7a07 08be 64d8 e33c
00000270: 378b 0d3e ca62 e83d f73e 4fbd 44f3 e0bd
00000280: 031e bdbc ba2a d93d 2323 eb3d b07d cebd
00000290: 6e85 a3bd 148c 16bc 08ba 38bc 34f9 073e
000002a0: 09a6 babc 83c7 5f3d d439 7e3d 21b3 0dbd
000002b0: 8505 0b3e 96a8 b6bd eff5 ea3c b869 123d
000002c0: 50dc 1e3d a796 563d 092a 8fbd ad17 0dbe
000002d0: 6158 dabd 93fc ff3d 13c4 033e 0792 edbd
000002e0: 0492 513d 9a23 ce3d cf39 77bc 4dee f43d
000002f0: a4e5 59bd 755b 6b3d 643d 0ebe ad9d 193c
00000300: 5d7a c33d 885c 01be 78db 013e d2ae 103d
00000310: 3031 b73d 72a9 9dbd 0e13 c4bd c8d1 81bd
00000320: b7cf a13c d612 5d3d f20f 013e 762d 70bd
00000330: 8fe5 5e3d 4351 c4bb 5281 033e ab56 7ebd
00000340: 9f33 d6bd 639e 0ebe 99ef 27be 9d18 e7bb
00000350: ad55 78bc 3d6e e23d c473 cebc 32ba f83d
00000360: 1cda c3bd bee1 cb3d 29b7 b8bd 14aa 0bbe
00000370: 741a 883d 728b b23d 7bab 1d3e 912c 193d
00000380: 0870 d53d cb29 15be 91a8 e73c 6395 fdbd
00000390: 08bf 2f3e b9fb cabd cb43 093c 5d6f 1e3d
000003a0: e98f 01be 2798 aa3c 3fd1 91bd 06a1 f63d
000003b0: a967 353c 938f dabc fdec d73d 0c8e f5bd
000003c0: a931 3f3e 3f95 18bd 0b17 873e bc33 c4bd
000003d0: 0967 2dbd 247d 2abd 484b 6bbc 0e05 013d
000003e0: a0e2 ecbd 3e77 67bd 8026 bfbd ea87 903b
000003f0: 65f3 193d d693 d93d b43a bebd d99b 94bd

lstm.bias_ih_l0 f4 [200]
0.06570536 0.048100322 -0.11881047 -0.0062607294 0.13763441 0.051520947 -0.03217622 0.06817914
-0.004970559 -0.12203708 0.1015604 -0.12277983 -0.068161875 0.013261546 -0.11633941 -0.097709924
-0.049751386 0.074051425 0.032701988 -0.1378811 -0.046152513 -0.00692026 0.13079602 -0.012865471
0.03737002 -0.105501495 -0.01975861 -0.071906365 -0.11519384 0.014604906 0.065061755 0.029698823
0.115307145 0.11789039 0.08603605 0.07206904 -0.023995029 -0.09704884 0.04243696 -0.026973449
0.009738417 0.037946366 -0.1127445 -0.056466587 0.116493404 0.047607526 -0.030337641 0.11235051
-0.0861395 0.12768252 0.13668802 -0.022447428 0.11895018 0.07581533 0.10398043 0.040563237
0.081401005 0.004659284 0.09107496 0.046171874 -0.06114372 0.00028575418 -0.0031173665 -0.0139889335
-0.09775336 0.08659088 0.07664852 0.108812146 0.12483685 -0.085683994 -0.11109119 -0.14172156
-0.013587481 -0.12862428 -0.11440517 0.14407131 -0.1123982 -0.09293807 0.055539012 -0.062815495
-0.025254386 0.072857894 -0.06404929 -0.11294022 -0.12454174 0.0720029 0.116607 0.10458244
0.13842344 -0.052467566 0.07522299 0.049107052 0.1003743 -0.12825787 0.046637975 -0.123426065
-0.018320918 0.07562759 -0.07221744 -0.1422624 -0.11642148 0.08541217 -0.088742994 -0.050139274
0.085705645 -0.089082204 0.02730804 0.1352703 -0.13664643 -0.05580059 -0.046154123 -0.069843836
0.08072908 0.0068156677 -0.04335135 -0.13795087 0.1441007 0.1003105 -0.119676165 -0.02669232
-0.07450127 0.01003749 0.13144885 -0.056386128 -0.012774641 -0.0026757983 -0.030549316 0.07643574
-0.09133248 0.12062459 0.096749984 -0.026789533 -0.033988673 -0.091782026 -0.0022277003 -0.122274004
0.022286445 -0.04926431 0.03991853 -0.040115725 -0.08647917 0.088783905 -0.13318372 -0.08392551
0.11873668 -0.123838164 0.071631745 0.01598754 -0.08171253 0.115389675 0.06825532 -0.009597944
0.080069356 -0.07428227 0.07010742 0.09423563 0.06990072 -0.02396644 -0.12911284 0.1244495
0.029383369 -0.015784826 -0.09027546 0.11568784 -0.047699463 0.12090227 0.0033516863 0.08401523
0.02997698 0.03462909 -0.07868784 -0.060440373 -0.081031606 -0.043751273 -0.06303052 -0.061678052
0.09142171 0.06461979 -0.016964832 0.09871975 -0.1231207 0.08097622 -0.033705655 0.12941147
-0.0163617 0.054138448 0.12184604 -0.024044748 -0.0045263693 -0.10386543 -0.11397742 0.055014294
-0.09038007 0.07072813 0.04528927 -0.09580293 0.06524533 0.017151015 0.093530856 -0.09361095
00000000: 8890 863d d804 453d e752 f3bd ce26 cdbb
00000010: 09f0 0c3e a107 533d 36cb 03bd 81a1 8b3d
00000020: 12e0 a2bb 94ee f9bd e6fe cf3d fe73 fbbd
00000030: 7498 8bbd f546 593c 5b43 eebd 241c c8bd
00000040: 1cc8 4bbd 46a8 973d 85f2 053d b430 0dbe
00000050: 6b0a 3dbd 59c3 e2bb 64ef 053e b2c9 52bc
00000060: 4e11 193d 2b11 d8bd cfdc a1bc a543 93bd
00000070: bfea ebbd 6a49 6f3c 193f 853d f24a f33c
00000080: 2726 ec3d 8470 f13d ab33 b03d ef98 933d
00000090: 3991 c4bc 8bc1 c6bd 61d2 2d3d 6cf7 dcbc
000000a0: e28d 1f3c a66d 1b3d 97e6 e6bd 8249 67bd
000000b0: 1894 ee3d 1c00 433d a586 f8bc 0618 e63d
000000c0: e869 b0bd 35bf 023e f2f7 0b3e abe3 b7bc
000000d0: 279c f33d 1145 9b3d b1f3 d43d a325 263d
000000e0: 92b5 a63d e8ac 983b 8285 ba3d b81e 3d3d
000000f0: d671 7abd 47d1 9539 bb4c 4cbb d731 65bc
00000100: ea32 c8bd 8f56 b13d e6f9 9c3d e7d8 de3d
00000110: 76aa ff3d 177b afbd c783 e3bd 751f 11be
00000120: 079e 5ebc 15b6 03be 424d eabd 6e87 133e
00000130: 0731 e6bd 5156 bebd e07c 633d 69a5 80bd
00000140: 49e2 cebc 8536 953d 462c 83bd 344d e7bd
00000150: bd0f ffbd 4276 933d a7cf ee3d 512f d63d
00000160: e0be 0d3e 3be8 56bd 830e 9a3d 7a24 493d
00000170: 0a91 cd3d 0856 03be 7607 3f3d cec6 fcbd
00000180: c015 96bc a3e2 9a3d bde6 93bd 3cad 11be
00000190: 636e eebd 93ec ae3d e3be b5bd d75e 4dbd
000001a0: 7186 af3d bb70 b6bd 1cb5 df3c 4c84 0a3e
000001b0: 0bed 0bbe 298f 64bd 1b0c 3dbd 490a 8fbd
000001c0: 4a55 a53d f755 df3b 2f91 31bd fe42 0dbe
000001d0: 228f 133e 976f cd3d c718 f5bd daa9 dabc
000001e0: 1f94 98bd 4974 243c 879a 063e 24f5 66bd
000001f0: ba4c 51bc 725c 2fbb 8f42 fabc 578a 9c3d
00000200: 860c bbbd 060a f73d db24 c63d b975 dbbc
00000210: b537 0bbd 37f8 bbbd 9cfe 11bb cb6a fabd
00000220: 1092 b63c 60c9 49bd 9d81 233d 6350 24bd
00000230: fe1b b1bd 56d4 b53d 5061 08be 23e1 abbd
00000240: 372c f33d dd9e fdbd aab3 923d 4df8 823c
00000250: e658 a7bd 6c51 ec3d 72c9 8b3d b240 1dbc
00000260: 67fb a33d 4e21 98bd 7b94 8f3d 9cfe c03d
00000270: 1c28 8f3d 4555 c4bc 2836 04be 61df fe3d
00000280: 64b5 f03c 2e4f 81bc 57e2 b8bd bfed ec3d
00000290: 8360 43bd 9c9b f73d f7a7 5b3b 2d10 ac3d
000002a0: 4992 f53c 3cd7 0d3d 1727 a1bd 5390 77bd
000002b0: e6f3 a5bd 8934 33bd 2516 81bd 20a2 7cbd
000002c0: 4e3b bb3d 6157 843d d5f9 8abc 952d ca3d
000002d0: b526 fcbd dcd6 a53d f10e 0abd 7184 043e
000002e0: f908 86bc 47c0 5d3d 6b8a f93d 7ef9 c4bc
000002f0: f051 94bb 66b7 d4bd fe6c e9bd ab56 613d
00000300: 3019 b9bd e9d9 903d 3e81 393d 5434 c4bd
00000310: 589f 853d 4980 8c3c 1b8d bf3d 19b7 bfbd

lstm.bias_hh_l0 f4 [200]
-0.03138676 0.0022210577 0.09644454 0.096845604 0.11730611 0.112927854 0.097998604 -0.025758602
-0.05704307 -0.022298617 0.13869928 -0.032655008 -0.07939086 -0.07466087 -0.055496268 0.10438864
-0.0024271728 0.06753429 0.03613274 -0.0069487053 -0.1082638 -0.0024419716 0.016574759 -0.078928955
-0.118437536 0.09681475 0.031884026 0.056709047 -0.09668384 0.038627204 -0.1342584 -0.1013352
-0.102540314 -0.11284929 0.06902619 0.12801076 0.05069634 0.12119977 0.12437827 0.02185592
-0.062242884 0.08096086 0.0971398 0.12908562 0.01905129 -0.06393236 0.06244129 -0.0875124
-0.039228518 -0.0064447825 -0.09291021 -0.11026035 0.12796678 0.027876794 -0.030551529 0.04832308
0.10164102 -0.105029345 0.11820354 -0.13578323 -0.1168234 0.01486888 0.045075636 -0.07370252
-0.018286105 0.077209294 -0.09524052 0.09951573 -0.03107602 -0.07382242 0.087711304 0.083587445
-0.034715958 -0.014766521 -0.06852956 0.09407116 -0.01636429 0.13365906 0.13976087 -0.105330326
-0.13064288 -0.09640672 -0.05051869 0.009238556 -0.03139644 0.011843175 -0.086794496 -0.11285609
-0.08334181 0.10972036 -0.08878322 -0.007971665 -0.063167974 -0.123894505 -0.021898154 -0.040574037
-0.0003144184 0.12587045 0.068752594 -0.071678296 0.11598453 -0.024086962 -0.09629397 -0.13043678
-0.0972326 -0.09149401 0.052535746 -0.11403373 0.1103318 -0.10638318 -0.0015154828 -0.0022942445
0.016115792 -0.08986386 -0.070540346 -0.06804176 -0.06387826 -0.08257438 -0.11029927 -0.13023563
-0.037497148 -0.13626932 -0.11848719 0.017416835 -0.12092093 0.11232405 0.12820902 0.049666606
-0.044476155 0.12769306 -0.033795774 0.111638814 -0.10167499 0.13169962 0.08530128 0.13960333
0.008777616 -0.010201311 -0.102150865 0.12619364 0.09106404 -0.017701147 0.0366216 0.0044326517
0.028051198 0.08839259 -0.10594551 0.08190983 0.08681639 0.1369853 -0.12905571 -0.021642216
-0.028899387 0.021256175 -0.054806992 -0.0396085 -0.08628399 0.079963356 -0.093666606 -0.015485336
-0.13547005 -0.09153336 -0.112250425 -0.11525011 -0.039936636 -0.04108978 0.0058682095 0.09122427
-0.12499815 -0.103052944 0.050915066 -0.09867377 0.10908467 -0.05041823 -0.090271786 0.025545422
-0.07564898 -0.10795778 -0.033631466 0.037929747 -0.007119994 0.05715898 -0.068536654 0.008180287
-0.020914441 -0.04555337 0.11582279 -0.13500616 -0.014099521 0.009959681 -0.12036427 0.04753279
-0.063518345 0.13463362 -0.119953275 -0.02522591 0.11981886 -0.07490116 -0.059349455 -0.08248716
00000000: 678f 00bd 2a8f 113b b784 c53d fd56 c63d
00000010: 303e f03d b846 e73d 7eb3 c83d b403 d3bc
00000020: ffa5 69bd 97ab b6bc 2f07 0e3e 42c1 05bd
00000030: ad97 a2bd cce7 98bd 0e50 63bd b6c9 d53d
00000040: 3411 1fbb 6b4f 8a3d edff 133d f7b1 e3bb
00000050: 69b9 ddbd 7c09 20bb cac7 873c 81a5 a1bd
00000060: 618f f2bd d046 c63d d398 023d bf47 683d
00000070: 2d02 c6bd 8f37 1e3d 097b 09be d488 cfbd
00000080: a800 d2bd 871d e7bd 9a5d 8d3d 4115 033e
00000090: f7a6 4f3d 9637 f83d 09ba fe3d 300b b33c
000000a0: 65f2 7ebd cfce a53d 3bf1 c63d 052f 043e
000000b0: 7311 9c3c f8ee 82bd 70c2 7f3d b339 b3bd
000000c0: 15ae 20bd c12e d3bb b547 bebd 2ed0 e1bd
000000d0: b909 033e e05d e43c 3347 fabc 6cee 453d
000000e0: 2b29 d03d a019 d7bd b314 f23d c20a 0bbe
000000f0: 1b41 efbd 9a9c 733c 3ba1 383d 59f1 96bd
00000100: becc 95bc e81f 9e3d 760d c3bd e7ce cb3d
00000110: 2393 febc 3530 97bd fca1 b33d e52f ab3d
00000120: 5232 0ebd 47ef 71bc 3a59 8cbd 61a8 c03d
00000130: 670e 86bc ecdd 083e 791d 0f3e 6db7 d7bd
00000140: 3fc7 05be e370 c5bd b0ec 4ebd 505d 173c
00000150: 8e99 00bd e009 423c 50c1 b1bd 1821 e7bd
00000160: 1caf aabd 11b5 e03d fad3 b5bd 969b 02bc
00000170: 365e 81bd 67bc fdbd c263 b3bc f630 26bd
00000180: 86d8 a4b9 2fe4 003e 29ce 8c3d 12cc 92bd
00000190: 4c89 ed3d 0552 c5bc c635 c5bd 3891 05be
000001a0: e321 c7bd 3661 bbbd b92f 573d 848a e9bd
000001b0: a4f5 e13d 6ddf d9bd 2aa3 c6ba 095b 16bb
000001c0: 4405 843c 8b0a b8bd 7577 90bd 7a59 8bbd
000001d0: 9bd2 82bd c21c a9bd 95e4 e1bd 7d5c 05be
000001e0: 9c96 19bd 2f8a 0bbe 69a9 f2bd c0ad 8e3c
000001f0: 64a5 f7bd 270a e63d 3a49 033e 366f 4b3d
00000200: a12c 36bd f8c1 023e 706d 0abd e4a2 e43d
00000210: fa3a d0bd 44dc 063e 70b2 ae3d 2df4 0e3e
00000220: fdcf 0f3c 6623 27bc 7934 d1bd e838 013e
00000230: c97f ba3d ff01 91bc 8800 163d c73f 913b
00000240: a0cb e53c 2d07 b53d f6f9 d8bd 57c0 a73d
00000250: cbcc b13d e045 0c3e 2e27 04be 044b b1bc
00000260: 68be ecbc 6e21 ae3c 4c7d 60bd 863c 22bd
00000270: a9b5 b0bd d4c3 a33d 47d4 bfbd 35b6 7dbc
00000280: a9b8 0abe d875 bbbd 8de3 e5bd 4008 ecbd
00000290: 9994 23bd c24d 28bd 1c4a c03b cad3 ba3d
000002a0: 08ff ffbd 6c0d d3bd 518c 503d 7915 cabd
000002b0: c967 df3d 5983 4ebd 6ae0 b8bd a244 d13c
000002c0: daed 9abd f818 ddbd 26c1 09bd 395c 1b3d
000002d0: d74e e9bb 891f 6a3d f25c 8cbd 9c06 063c
000002e0: c354 abbc 2c96 3abd 8034 ed3d 0e3f 0abe
000002f0: ad01 67bc ee2d 233c 8b81 f6bd beb1 423d
00000300: e815 82bd 65dd 093e 10aa f5bd 91a6 cebc
00000310: 9763 f53d c865 99bd 6a18 73bd 07ef a8bd

lstm.weight_ih_l1 f4 [200, 50]
0.00822919 0.07681211 0.04434685 0.0062588556 0.05329392 0.31181 0.15036455 0.14128989
-0.031951558 -0.14626792 0.029639168 0.022500597 0.024333587 0.055186287 0.12296903 -0.057754237
-0.12750302 -0.074634336 -0.12063672 0.079539135 -0.15691975 0.08088253 0.031410776 0.042470977
0.045612402 -0.055714075 0.017556407 0.032318477 -0.050561145 -0.03442285 -0.12757728 0.09651537
0.06961285 0.015416575 -0.14503302 0.12795681 -0.039756943 -0.033640366 0.09568346 -0.04446343
0.13072206 0.1253163 -0.09653699 -0.07187404 -0.13806272 -0.033937488 0.017273903 0.16987698
-0.007988999 -0.0650618 -0.109495535 -0.03995243 -0.032402076 -0.035242006 0.07362448 -0.10258103
-0.08196509 0.12241085 -0.1119468 -0.11340695 0.15452169 0.19167118 -0.04455356 -0.1413751
0.10972669 -0.007768962 -0.0026201142 -0.0058420985 -0.02338351 0.055683546 -0.13830078 -0.03378595
0.08135518 -0.051236104 -0.06623824 -0.11225044 -0.14979345 -0.1880718 -0.021112856 -0.0011918229
0.07470847 0.030233163 0.08867285 0.017954543 -0.054213654 -0.08049981 -0.1389946 0.022080304
-0.012769013 0.031372804 0.1845447 -0.062332787 0.015300596 -0.049483493 -0.096919864 -0.031012235
0.12581018 0.07794041 0.04328188 -0.1125253 -0.08225123 -0.12888046 -0.023698095 0.163253
0.052508734 0.06250654 -0.006949385 -0.09213641 -0.07637866 0.028937545 -0.17697111 0.1402627
0.052948415 -0.008331716 -0.04297089 -0.053912953 0.14821252 0.104242444 0.0152341705 -0.057410844
-0.00945073 0.027531294 -0.11469796 -0.09625735 -0.12647894 -0.0117657725 -0.04573496 0.05545303
-0.061849132 0.02937893 0.12458197 -0.10072835 0.06482598 -0.039406065 0.08116596 0.117356546
-0.27379918 -0.09275925 0.12715086 0.0047019017 0.113628715 0.103042714 -0.2171563 0.13681272
0.08230431 0.030631987 0.004409803 -0.06170157 -0.024500454 -0.07172862 -0.16619645 -0.14404126
-0.076320514 -0.032658897 0.06370228 0.13848379 -0.0068928236 -0.08355939 -0.111162275 -0.14686859
-0.11250558 -0.04532196 -0.0469588 0.13694279 0.13113661 0.13664398 0.079488225 0.027692324
-0.065869614 -0.049540523 -0.037265193 0.034013864 0.23213659 0.06773911 0.006697257 0.023197675
0.1823027 0.074315496 0.14400813 0.018714283 -0.005122497 -0.089710616 0.1745061 -0.020921286
-0.15053225 0.05312251 -0.011272384 -0.11603004 0.039445575 -0.09437949 0.088362016 0.057717327
-0.067131616 0.033609267 -0.0246356 0.011413361 -0.024234721 0.10141209 0.068558395 -0.015862154
-0.0061204196 -0.08148733 -0.12565713 0.17658873 -0.01902624 -0.06891373 -0.0012911435 -0.05862796
-0.081884 -0.17047133 -0.06854161 -0.10311634 0.17464067 0.075522795 -0.066752285 -0.06453721
0.11027124 -0.07699036 0.17117439 0.022692978 -0.055242043 0.009271234 0.0894729 -0.07828241
-0.018306468 0.17717886 0.0007272309 0.033054158 0.09315527 0.028666716 -0.13623281 0.061185967
-0.052159626 -0.011115798 0.0010756542 0.08206047 0.070632756 0.07540024 0.0593467 0.039177526
0.13414475 0.113494895 -0.10103906 -0.015299335 0.1451092 -0.052637473 0.013129637 -0.114426546
0.0011613232 -0.030889805 -0.016735725 0.036352467 0.033576492 -0.06093589 0.03960078 0.15026155
00000000: b9d3 063c ab4f 9d3d 0ba5 353d 1617 cd3b
00000010: ba4a 5a3d 8fa5 9f3e 2af9 193e 4cae 103e
00000020: a3df 02bd 42c7 15be d7cd f23c 2c53 b83c
00000030: 3b57 c73c 040b 623d 30d7 fb3d b58f 6cbd
00000040: 2790 02be e3d9 98bd 6210 f7bd 6ae5 a23d
00000050: 92af 20be bda5 a53d 96a8 003d 0cf6 2d3d
00000060: 12d4 3a3d 7134 64bd 74d2 8f3c 6160 043d
00000070: 3419 4fbd f9fe 0cbd 9ea3 02be daa9 c53d
00000080: 2f91 8e3d cd95 7c3c 8983 14be 1c07 033e
00000090: 2dd8 22bd 7bca 09bd b1f5 c33d 491f 36bd
000000a0: 01dc 053e eb52 003e 2fb5 c5bd b232 93bd
000000b0: 5060 0dbe 0902 0bbd 0082 8d3c 3bf4 2d3e
000000c0: 4ae4 02bc 1f3f 85bd 323f e0bd 29a5 23bd
000000d0: 0ab8 04bd ec59 10bd 6ec8 963d 0116 d2bd
000000e0: 50dd a7bd 8ab2 fa3d 5d44 e5bd e741 e8bd
000000f0: ef3a 1e3e 7345 443e cb7d 36bd a2c4 10be
00000100: 63b8 e03d c792 febb 39b6 2bbb 136f bfbb
00000110: c68e bfbc 6e14 643d b89e 0dbe 2363 0abd
00000120: 8b9d a63d f3dc 51bd eaa7 87bd 8fe3 e5bd
00000130: 7463 19be e595 40be def4 acbc f136 9cba
00000140: c100 993d 8aab f73c 1c9a b53d 6815 933c
00000150: 230f 5ebd 16dd a4bd 9a54 0ebe c1e1 b43c
00000160: 1f35 51bc c580 003d 49f9 3c3e aa50 7fbd
00000170: 5aaf 7a3c 34af 4abd ec7d c6bd 5f0d febc
00000180: 62d4 003e 399f 9f3d 5748 313d aa73 e6bd
00000190: 5573 a8bd 3df9 03be 8222 c2bc cb2b 273e
000001a0: 6613 573d 6e03 803d abb7 e3bb 04b2 bcbd
000001b0: 6a6c 9cbd 6e0e ed3c ea37 35be 06a1 0f3e
000001c0: 70e0 583d c081 08bc 3e02 30bd d4d3 5cbd
000001d0: 06c5 173e 107d d53d be98 793c a227 6bbd
000001e0: 3cd7 1abc 4f89 e13c c4e6 eabd 9322 c5bd
000001f0: b283 01be 3ac5 40bc 9554 3bbd b722 633d
00000200: 8455 7dbd 15ac f03c d524 ff3d aa4a cebd
00000210: 7cc3 843d 4168 21bd 573a a63d a158 f03d
00000220: 682f 8cbe 90f8 bdbd d633 023e 6912 9a3b
00000230: 2cb6 e83d 0f08 d33d 395e 5ebe a218 0c3e
00000240: 298f a83d efef fa3c 1c80 903b c9ba 7cbd
00000250: 2db5 c8bc 74e6 92bd 672f 2abe 8d7f 13be
00000260: ee4d 9cbd 56c5 05bd 5776 823d b2ce 0d3e
00000270: 32dd e1bb 2f21 abbd 0ca9 e3bd b864 16be
00000280: 5369 e6bd 85a3 39bd df57 40bd bb3a 0c3e
00000290: ad48 063e 66ec 0b3e b9ca a23d 03db e23c
000002a0: a6e6 86bd 01eb 4abd 63a3 18bd 1f52 0b3d
000002b0: 37b5 6d3e cdba 8a3d aa74 db3b 0d09 be3c
000002c0: 8fad 3a3e b932 983d de76 133e b24e 993c
000002d0: 9fda a7bb 33ba b7bd bab1 323e 1e63 abbc
000002e0: 2025 1abe fd96 593d ceaf 38bc 28a1 edbd
000002f0: af91 213d 094a c1bd 25f7 b43d 0169 6c3d
00000300: 4d7c 89bd dfa9 093d 99d0 c9bc 1bff 3a3c
00000310: e587 c6bc 24b1 cf3d 5868 8c3d 59f1 81bc
00000320: cd8d c8bb d4e2 a6bd 43ac 00be add3 343e
00000330: ebdc 9bbc a422 8dbd 963b a9ba df23 70bd
00000340: ccb2 a7bd 0990 2ebe 8b5f 8cbd a92e d3bd
00000350: 01d5 323e b2ab 9a3d 6cb5 88bd 162c 84bd
00000360: e3d5 e13d 1fad 9dbd 5748 2f3e a0e6 b93c
00000370: 7b45 62bd 60e6 173c 913d b73d 8752 a0bd
00000380: 72f7 95bc 606e 353e a4a3 3e3a cc63 073d
00000390: 31c8 be3d 76d6 ea3c 9d80 0bbe 239e 7a3d
000003a0: 55a5 55bd 091f 36bc f7fc 8c3a 520f a83d
000003b0: e8a7 903d 716b 9a3d 8615 733d 9d78 203d
000003c0: 3e5d 093e 0370 e83d 91ed cebd 10aa 7abc
000003d0: 8297 143e 649a 57bd b01d 573c 7758 eabd
000003e0: 8a37 983a 9e0c fdbc 5c19 89bc 53e6 143d
000003f0: 8187 093d e997 79bd 6d34 223d 2ade 193e

lstm.weight_hh_l1 f4 [200, 50]
-0.11868354 -0.014474196 -0.050702553 0.117421314 0.111166164 0.09845123 -0.0025137528 0.14351301
-0.11631202 0.12701054 0.061084755 -0.20475478 0.10491926 0.030716375 -0.23259552 0.030894
0.097791955 0.003178165 -0.06296115 -0.049866438 0.094936416 0.03918677 -0.16712318 0.14319482
0.15781395 0.014219529 0.17241846 0.14638112 0.048031628 -0.055084445 0.053586353 0.06557597
-0.11985571 -0.05023737 0.04811111 -0.2133333 0.0512972 0.047815107 0.11508234 -0.1251116
0.11080154 0.051292066 0.015831267 -0.02167167 -0.10412104 0.10401201 -0.027225625 -0.053288262
0.21957242 0.03990195 0.22108024 0.15844262 -0.10251463 -0.17318301 -0.17645055 0.17868537
-0.10700222 0.09920124 0.06633288 0.0025718447 0.0037557813 0.020644896 -0.054679334 -0.02551507
0.0071297637 -0.016008737 -0.023522312 0.12972887 -0.09998032 -0.059709024 0.16378579 -0.21215773
-0.12948641 -0.07032374 -0.07035124 0.10669245 0.21183176 -0.06456751 -0.08091858 0.106949836
-0.116071954 -0.14755118 -0.1057772 -0.15981074 -0.11598256 -0.102466516 0.09315836 0.095646955
0.012913825 -0.121857546 -0.15932038 -0.027694337 -0.17532395 -0.014538488 -0.03301952 0.03530233
0.13695848 0.094679214 0.011435634 0.10720997 0.12754586 0.037799574 -0.12028515 -0.044389565
-0.035616975 0.15520468 -0.14189608 0.033427246 -0.031798624 0.042411286 -0.0038605046 0.025932657
-0.14312261 0.029190956 0.044336878 -0.0046308697 -0.058702566 -0.026927894 0.06276276 0.1681804
0.076207854 0.10383442 -0.13978563 0.18442577 -0.07816953 0.1268487 -0.059750326 0.14537708
0.09611139 0.029838908 -0.15526035 0.15742078 -0.1408535 0.084602624 -0.14078374 0.052276347
0.008656299 -0.100684635 0.0033852954 -0.07911922 0.003952717 0.04533413 -0.19497898 -0.11816669
-0.11142887 -0.15243436 -0.15594734 -0.12377378 0.013357437 -0.12520882 0.12957008 -0.07702026
-0.05110222 -0.051464662 0.08304384 -0.008255137 0.045681432 0.16652247 -0.05517246 -0.043334413
0.10862064 0.0077634146 0.10484719 0.0110501 -0.06947374 0.062316198 0.18646619 -0.18044443
-0.069907464 0.035776753 -0.04929868 -0.003388071 -0.117039986 0.12872027 -0.047792777 0.08144067
0.052766476 0.09149411 0.11304944 0.025411341 0.071476914 0.068537414 0.08326955 0.08390861
0.047482427 -0.049650136 -0.040611926 -0.11443003 -0.0069580837 0.0028387783 -0.1257849 0.0019056118
-0.05369065 -0.007479804 0.06411819 -0.097033426 0.015580769 0.1275008 0.1767154 -0.058759272
0.08813468 0.031364195 0.1479554 -0.13055559 -0.12376684 -0.03906717 -0.055957366 0.0036174355
0.09534027 0.032615047 -0.09435037 0.081117615 -0.16611432 0.0151093565 -0.19357778 -0.06381891
0.0014209746 0.016438967 0.1618084 -0.014111523 0.19525097 0.22703394 0.19487393 0.12559809
0.039618097 -0.27269962 0.046877712 -0.11471893 0.15719175 -0.24744995 -0.029724505 0.033208035
-0.22870393 -0.014570829 0.20862669 -0.0656674 -0.0058694975 0.03947451 -0.043009546 -0.07877445
0.10317832 -0.010283855 0.060457945 -0.01779832 -0.018822245 0.061017558 -0.029240739 -0.057431713
0.0409056 0.0026205333 0.03802434 0.1382977 -0.086869225 -0.07030069 0.071546905 0.16998924
00000000: 5b10 f3bd 2e25 6dbc 7bad 4fbd 967a f03d
00000010: 16ab e33d cca0 c93d c6bd 24bb 13f5 123e
00000020: ff34 eebd 0d0f 023e 0234 7a3d 3dab 51be
00000030: e9df d63d e8a0 fb3c 852d 6ebe 6a15 fd3c
00000040: 2647 c83d c348 503b c7f1 80bd c040 4cbd
00000050: 066e c23d 4e82 203d 5722 2bbe aaa1 123e
00000060: fb99 213e 07f9 683c 778e 303e efe4 153e
00000070: d0bc 443d 3aa0 61bd 5d7d 5b3d b24c 863d
00000080: e976 f5bd b3c5 4dbd 2810 453d 0b74 5abe
00000090: 031d 523d c6d9 433d 4ab0 eb3d 411d 00be
000000a0: ebeb e23d a117 523d 93b0 813c c988 b1bc
000000b0: 693d d5bd 4004 d53d 4608 dfbc cb44 5abd
000000c0: 98d7 603e 3a70 233d dc62 623e c83e 223e
000000d0: 31f3 d1bd e356 31be 74af 34be 4cf9 363e
000000e0: fb23 dbbd 052a cb3d 88d9 873d 658c 283b
000000f0: 8e23 763b 7c1f a93c 70f7 5fbd fb04 d1bc
00000100: cba0 e93b c124 83bc ddb1 c0bc a5d7 043e
00000110: 7bc2 ccbd 7391 74bd 76b7 273e e03f 59be
00000120: 1698 04be e505 90bd 5014 90bd 9281 da3d
00000130: 6dea 583e f83b 84bd a4b8 a5bd 8408 db3d
00000140: 22b7 edbd a817 17be b7a1 d8bd 6da5 23be
00000150: 4488 edbd f7d9 d1bd cfc9 be3d 8de2 c33d
00000160: 8294 533c 7390 f9bd e224 23be 3cdf e2bc
00000170: 1f88 33be d732 6ebc 7a3f 07bd 2d99 103d
00000180: d83e 0c3e 2de7 c13d 875c 3b3c e790 db3d
00000190: 629b 023e bad3 1a3d 1058 f6bd d5d1 35bd
000001a0: 1be3 11bd faed 1e3e 354d 11be 02eb 083d
000001b0: 463f 02bd 75b7 2d3d 8500 7dbb b970 d43c
000001c0: bc8e 12be df21 ef3c 969a 353d 8dbe 97bb
000001d0: 1a72 70bd e397 dcbc c389 803d 7c37 2c3e
000001e0: dd12 9c3d 24a7 d43d f723 0fbe 1cda 3c3e
000001f0: 5917 a0bd a0e4 013e c2bc 74bd bbdd 143e
00000200: 0cd6 c43d ba70 f43c 92fc 1ebe ea32 213e
00000210: e63b 10be 2444 ad3d 9d29 10be b91f 563d
00000220: 26d3 0d3c bf33 cebd d5db 5d3b 4209 a2bd
00000230: cb85 813b 48b0 393d 92a8 47be 6101 f2bd
00000240: d234 e4bd c117 1cbe a9b0 1fbe 1c7d fdbd
00000250: 27d9 5a3c be36 00be 05ae 043e ccbc 9dbd
00000260: 9050 51bd 9ccc 52bd e412 aa3d 8e40 07bc
00000270: 741c 3b3d de84 2a3e 84fc 61bd 6d7f 31bd
00000280: 8074 de3d 3e64 fe3b 20ba d63d 7b0b 353c
00000290: 4048 8ebd 453f 7f3d fef0 3e3e 6dc6 38be
000002a0: a52b 8fbd a58a 123d 6aed 49bd 660a 5ebb
000002b0: a9b2 efbd 3fcf 033e 5cc2 43bd 5eca a63d
000002c0: a921 583d 4461 bb3d 7786 e73d 722b d03c
000002d0: 7d62 923d 585d 8c3d 3a89 aa3d 47d8 ab3d
000002e0: ef7c 423d f15d 4bbd b158 26bd 4b5a eabd
000002f0: a300 e4bb cc0a 3a3b c2cd 00be b9c5 f93a
00000300: baea 5bbd 2519 f5bb 6650 833d 76b9 c6bd
00000310: 7b46 7f3c 928f 023e e2f4 343e 90ad 70bd
00000320: f57f b43d be77 003d 9f81 173e 5db0 05be
00000330: 7879 fdbd e604 20bd 8d33 65bd 7f12 6d3b
00000340: c241 c33d 5b97 053d c43a c1bd fe20 a63d
00000350: df19 2abe 3c8d 773c 4139 46be 7db3 82bd
00000360: ff3f ba3a 03ab 863c 1ab1 253e 0434 67bc
00000370: dfef 473e 967b 683e 088d 473e c99c 003e
00000380: 9646 223d 499f 8bbe d802 403d c2f1 eabd
00000390: e0f6 203e 8563 7dbe ce80 f3bc 2605 083d
000003a0: 5d31 6abe 7dba 6ebc 3ca2 553e a17c 86bd
000003b0: ea54 c0bb 06b0 213d c72a 30bd 8054 a1bd
000003c0: 284f d33d 9d7d 28bc c0a2 773d c8cd 91bc
000003d0: 1c31 9abc 8ced 793d 468a efbc 843d 6bbd
000003e0: a18c 273d 41bd 2b3b 69bf 1b3d ea9d 0d3e
000003f0: 7ee8 b1bd cff9 8fbd 2f87 923d a911 2e3e

lstm.bias_ih_l1 f4 [200]
-0.08783337 0.1116747 0.15068078 0.04086968 0.17140241 0.103060834 0.13254797 -0.033526316
-0.034771897 0.12939997 -0.052986644 -0.0069920984 0.13134243 0.025356252 -0.034660775 0.055285547
0.13741833 -0.051733684 0.20163323 0.14621873 0.07982197 -0.014840963 0.028116059 0.114700966
0.11830014 0.1255855 0.16876222 0.08177487 0.15296796 0.16853264 0.08032919 -0.009325415
0.1129438 0.15804574 0.093229435 -0.011240603 0.026508937 0.081389725 0.07724579 -0.06319753
0.018797671 0.0772921 -0.015158607 0.0060833977 0.052068878 0.19022593 0.0032578262 0.09009116
0.0008309698 0.07556646 0.15835416 -0.055334546 0.02213787 0.13588181 -0.06691417 -0.07224421
-0.07818209 -0.017693523 0.10894202 0.0529756 0.012706712 -0.06759403 0.1653242 0.07767583
0.22003502 -0.07329818 0.12702394 0.08930424 -0.08472337 -0.068587705 0.06099076 -0.02718143
0.12016519 -0.04965075 0.04538318 0.081962734 -0.0700917 0.0059208847 0.12935306 -0.007954717
0.02039212 -0.013430352 0.06706577 0.15597986 0.120295055 0.13123713 -0.03161102 0.12872131
-0.033413187 0.16858724 -0.02489955 -0.00017941806 0.16995546 -0.037478693 0.025412926 0.13891669
0.027138049 0.17432185 0.045912012 0.13060722 0.12767364 0.053493965 -0.1029351 -0.050140295
-0.11596183 -0.097316116 -0.078715876 0.10114683 0.035448566 -0.0032247717 0.03030405 0.008481178
0.06926709 0.06347123 -0.007493749 0.095356524 0.023545407 -0.10438643 -0.021826228 0.1058184
0.105852075 0.11176931 -0.11658559 -0.05517 0.13241336 -0.070287965 0.027378773 -0.12586038
0.08462261 0.021871964 0.11226979 0.10204211 -0.123159036 -0.09846886 -0.09339382 -0.05701547
0.00800226 -0.105258025 0.014894535 0.09947796 -0.14069264 -0.048353147 -0.11814574 0.054538183
-0.1340317 -0.0896532 -0.06271887 -0.0029252218 -0.11746843 -0.13332808 0.13316987 0.06753678
0.18653394 0.21156913 0.00941118 0.006080263 0.018989196 0.12393109 -0.029848848 0.21619825
0.121344335 0.21382627 -0.044727597 0.14097126 0.07067547 0.018732958 0.12201984 0.14484504
0.22281913 0.17570025 0.19119518 0.13106525 0.14416176 0.10875 0.15562163 0.22091386
0.22314164 0.11144464 0.050714504 0.06314195 0.18956336 0.11564669 0.07452785 0.027725
0.10720197 0.13507587 0.16098823 0.12578699 0.013001396 -0.05732745 0.04317998 0.10596523
0.20703225 0.004412848 -0.028473882 0.21435703 0.11251214 -0.013624072 0.09058502 -0.0012920775
00000000: fbe1 b3bd b5b5 e43d 104c 1a3e f766 273d
00000010: 1d84 2f3e 8f11 d33d a8ba 073e e452 09bd
00000020: fa6c 0ebd 6d81 043e 8608 59bd f91d e5bb
00000030: a17e 063e eab7 cf3c 75f8 0dbd 1973 623d
00000040: 64b7 0c3e b3e6 53bd f178 4e3e 5dba 153e
00000050: b379 a33d 8327 73bc a653 e63c 57e8 ea3d
00000060: 5847 f23d 7c99 003e 01d0 2c3e 9579 a73d
00000070: a2a3 1c3e d293 2c3e a183 a43d a0c9 18bc
00000080: 144f e73d bed6 213e 13ef be3d 822a 38bc
00000090: 4529 d93c a8af a63d 0a33 9e3d b56d 81bd
000000a0: 93fd 993c 524b 9e3d ce5b 78bc 3d57 c73b
000000b0: 2d46 553d 96ca 423e 4181 553b b781 b83d
000000c0: 70d5 593a 97c2 9a3d 9827 223e 7aa6 62bd
000000d0: 7a5a b53c 9a24 0b3e 4c0a 89bd c6f4 93bd
000000e0: ee1d a0bd 02f2 90bc fe1c df3d f1fc 583d
000000f0: d02f 503c bd6e 8abd bf4a 293e 8114 9f3d
00000100: dc50 613e 5b1d 96bd 9012 023e 24e5 b63d
00000110: 7283 adbd b677 8cbd 72d1 793d 97ab debc
00000120: 2b19 f63d 965e 4bbd b7e3 393d 14dc a73d
00000130: 3d8c 8fbd fb03 c23b 2175 043e 8054 02bc
00000140: 600d a73c fb0a 5cbc c759 893d 2fb9 1f3e
00000150: 415d f63d 0763 063e 8f7a 01bd 85cf 033e
00000160: 44dc 08bd 22a2 2c3e 24fa cbbc 2b22 3cb9
00000170: ce08 2e3e 4283 19bd c52e d03c 2d40 0e3e
00000180: 9d50 de3c 6d81 323e 3c0e 3c3d e6bd 053e
00000190: e1bc 023e 7d1c 5b3d a3cf d2bd e95f 4dbd
000001a0: 657d edbd ac4d c7bd ca35 a1bd 1226 cf3d
000001b0: 8432 113d b156 53bb 3340 f83c a4f4 0a3c
000001c0: e7db 8d3d 34fd 813d 1f8e f5bb 484a c33d
000001d0: 4ce2 c03c 8dc8 d5bd ebcc b2bc 51b7 d83d
000001e0: f9c8 d83d 4fe7 e43d 6dc4 eebd f0f9 61bd
000001f0: 5e97 073e 23f3 8fbd 7349 e03c 8be1 00be
00000200: 9e4e ad3d d52c b33c b4ed e53d 74fb d03d
00000210: ce3a fcbd 0baa c9bd 4245 bfbd 0e89 69bd
00000220: e91b 033c 8591 d7bd 3508 743c 1abb cb3d
00000230: bb11 10be f30d 46bd 65f6 f1bd 6e63 5f3d
00000240: 9b3f 09be 199c b7bd c072 80bd 14b5 3fbb
00000250: 4a93 f0bd 2887 08be af5d 083e b950 8a3d
00000260: c102 3f3e 94a5 583e 5a31 1a3c f13c c73b
00000270: 3b8f 9b3c 95cf fd3d 9285 f4bc 1363 5d3e
00000280: 6183 f83d 46f5 5a3e 4934 37bd c55a 103e
00000290: 4dbe 903d dc75 993c 8ae5 f93d 4252 143e
000002a0: b32a 643e c4ea 333e abc8 433e f835 063e
000002b0: 249f 133e 52b8 de3d 475b 1f3e 3e37 623e
000002c0: 3e7f 643e 163d e43d 03ba 4f3d 9150 813d
000002d0: e61c 423e 2cd8 ec3d 0fa2 983d 8a1f e33c
000002e0: b58c db3d 5451 0a3e 19da 243e 4ece 003e
000002f0: cf03 553c 30d0 6abd 7edd 303d 4c04 d93d
00000300: 4300 543e a799 903b 0f42 e9bc 6980 5b3e
00000310: c46c e63d 8037 5fbc a484 b93d ed5a a9ba

lstm.bias_hh_l1 f4 [200]
-1.9769599e-05 0.10604614 -0.06867647 0.012893044 0.05737768 -0.042173117 -0.06022123 -0.075421594
0.059233747 -0.06323392 0.12424354 -0.0711493 0.041871473 0.12611802 -0.104192756 0.07831354
0.14456253 -0.06960373 0.1114081 -0.038960055 0.022019153 0.042544875 0.16639227 0.07529687
-0.08068908 0.04418698 0.13503636 -0.057604175 0.123918876 -0.030110115 0.120221645 0.14223558
0.047244508 0.10581388 0.070652604 0.07474583 0.075584896 0.12628886 0.062531084 0.10393459
-0.06530646 -0.057770357 -0.057994608 -0.022479735 0.04763604 0.12944178 -0.015579319 -0.0409238
0.015776418 -0.057693895 0.13913836 0.119334325 0.13010857 0.04076713 0.17760728 0.12428463
-0.03731717 0.0554848 -0.08516099 -0.08699455 -0.0001488616 -0.011766195 0.021327343 0.12736695
-0.032130342 0.08189115 0.12401029 0.12897503 -0.054961417 -0.08004467 -0.045592003 0.053969875
0.055805035 0.15371984 0.080019765 0.1341805 0.10047959 0.16701478 -0.039343793 0.07428928
0.010408744 -0.0052600205 0.13888095 0.11976658 -0.022820862 -0.017477693 -0.00989419 0.018751498
0.06913258 0.12888312 -0.06401654 -0.030419432 0.06549087 0.18298215 0.106758855 -0.00046516326
0.062218536 -0.090733364 0.0112463925 0.028147452 0.08434083 -0.014830806 0.1328284 0.03283964
-0.06035254 0.09718338 -0.08343557 0.11920015 0.10069647 -0.09034343 0.09991506 0.11547924
-0.057323925 0.1493362 -0.11543257 -0.07138018 0.03624771 0.106377244 -0.13934965 0.14757068
-0.015250497 0.12079346 0.11890256 0.031051053 -0.10945891 -0.038565483 -0.10080759 0.064942814
0.08611322 -0.051582053 -0.107326984 0.041423764 0.015737357 -0.048270307 -0.008226197 -0.022163428
0.13120458 -0.09566594 -0.070873596 -0.09789154 -0.12405221 0.105802335 -0.03641454 0.10587915
-0.052127093 -0.09395891 -0.110348664 0.012912796 0.033993207 0.072475374 0.11867958 0.14150149
0.0269729 -0.04483023 0.09734073 -0.053568512 0.07215998 0.17435484 0.14064722 0.1710308
0.15595144 0.1330515 0.037469123 -0.057830524 -0.03621046 0.01623479 0.10857222 0.14556335
0.26060838 0.09657271 0.006790189 -0.016009305 -0.03175289 0.1982828 0.10907434 0.18742995
0.016561845 0.12560828 0.1875217 0.15088764 0.05253755 0.14581887 0.020109842 0.1796828
-0.040463883 -0.0028071709 -0.015071582 0.06709829 0.093763046 0.045026578 0.14755602 0.122212045
-0.0195996 0.176779 0.18887289 -0.046355464 0.009908359 -0.011980053 0.044618785 -0.0041510276
00000000: e4d6 a5b7 b82e d93d 40a6 8cbd 593d 533c
00000010: dc04 6b3d b8bd 2cbd 89aa 76bd a376 9abd
00000020: 169f 723d c980 81bd 6673 fe3d b9b6 91bd
00000030: 6c81 2b3d 1525 013e 0363 d5bd d962 a03d
00000040: 3308 143e 678c 8ebd ee29 e43d 9494 1fbd
00000050: 8361 b43c 8943 2e3d bc62 2a3e 3f35 9a3d
00000060: 5140 a5bd 68fd 343d f946 0a3e 5bf2 6bbd
00000070: 2ec9 fd3d 7da9 f6bc c436 f63d 34a6 113e
00000080: 7583 413d f3b4 d83d 50b2 903d 5714 993d
00000090: 41cc 9a3d de51 013e 4c10 803d a9db d43d
000000a0: 65bf 85bd 9ca0 6cbd c18b 6dbd 6c27 b8bc
000000b0: 021e 433d 638c 043e 6640 7fbc b79f 27bd
000000c0: 8c3d 813c 6f50 6cbd 497a 0e3e 8e65 f43d
000000d0: 2e3b 053e 6ffb 263d afde 353e f188 fe3d
000000e0: e4d9 18bd 0844 633d e368 aebd 332a b2bd
000000f0: bb17 1cb9 00c7 40bc aeb6 ae3c 7b6c 023e
00000100: 1b9b 03bd 8cb6 a73d 1bf9 fd3d 0812 043e
00000110: 391f 61bd 76ee a3bd aebe 3abd 840f 5d3d
00000120: d293 643d bc68 1d3e 67e1 a33d 9d66 093e
00000130: 3ec8 cd3d ec05 2b3e f526 21bd fa24 983d
00000140: 7089 2a3c 405c acbb cf36 0e3e 2e48 f53d
00000150: d1f2 babc 612d 8fbc 3e1b 22bc be9c 993c
00000160: 6295 8d3d f0f9 033e 1b1b 83bd 2c32 f9bc
00000170: 1420 863d ac5f 3b3e 63a4 da3d 28e1 f3b9
00000180: ddd8 7e3d 6ad2 b9bd ca42 383c 7c95 e63c
00000190: e3ba ac3d e9fc 72bc 2b04 083e dc82 063d
000001a0: 3a34 77bd 1408 c73d 45e0 aabd 351f f43d
000001b0: f339 ce3d fa05 b9bd 44a0 cc3d 6180 ec3d
000001c0: 7ecc 6abd 97eb 183e e967 ecbd c62f 92bd
000001d0: 7b78 143d 50dc d93d adb1 0ebe c51c 173e
000001e0: 38dd 79bc 9062 f73d 2f83 f33d c75e fe3c
000001f0: fe2b e0bd d7f6 1dbd 3674 cebd bd00 853d
00000200: 215c b03d b447 53bd 40ce dbbd f7ab 293d
00000210: a1eb 803c 16b7 45bd 2cc7 06bc 1490 b5bc
00000220: 7e5a 063e 81ec c3bd 2d26 91bd 5c7b c8bd
00000230: 160f febd e5ae d83d 6a27 15bd 2bd7 d83d
00000240: 3883 55bd 876d c0bd 7bfe e1bd 3190 533c
00000250: 763c 0b3d f86d 943d 480e f33d c4e5 103e
00000260: 45f6 dc3c e79f 37bd 945a c73d a86a 5bbd
00000270: 9dc8 933d 138a 323e d305 103e b322 2f3e
00000280: bcb1 1f3e a73e 083e 3979 193d b3df 6cbd
00000290: 6b51 14bd d3fe 843c 1d5b de3d 8f0e 153e
000002a0: 766e 853e eac7 c53d 3c80 de3b f225 83bc
000002b0: 520f 02bd a50a 4b3e 5e62 df3d a3ed 3f3e
000002c0: b5ac 873c 759f 003e b005 403e 4a82 1a3e
000002d0: 9d31 573d 8b51 153e 65bd a43c c5fe 373e
000002e0: 75bd 25bd 83f8 37bb ccee 76bc d46a 893d
000002f0: d706 c03d ca6d 383d ed18 173e 4f4a fa3d
00000300: 578f a0bc 8e05 353e e567 413e 3adf 3dbd
00000310: ab56 223c fc47 44bc 30c2 363d 5805 88bb
